checkpoint_critic.pth (torch_old, 82722 bytes, 9 tensors)

bn0.weight f4 [25]
000000 be 97 48 3e 36 db 34 3e f4 49 38 3e ef e5 c0 3d
       0.19589135 0.17661747 0.17996961 0.09418856
000010 ad 14 75 3f d8 48 fd 3e 18 3b 37 bb 21 99 08 3e
       0.95734674 0.49469638 -0.0027958807 0.13339664
000020 55 5f b7 3d 9d b4 9a 3e 62 be c0 3d 74 89 ee 3d
       0.0895373 0.30215922 0.09411313 0.11647311
000030 d1 81 b3 3e aa 80 1f 3f 94 54 ee 3d ae fa e9 3d
       0.3505998 0.623057 0.11637226 0.114247665
000040 20 eb 17 3f ca fd b8 3e ff 9f 23 3e 5c 61 aa 3e
       0.5934315 0.36131126 0.15979002 0.33277404
000050 f7 2d 92 3f fe d4 25 3f eb 61 ce 3c ae 8d 86 3e
       1.1420277 0.64778125 0.025193175 0.26279968
000060 5d 5b b6 3e
       0.3561658

bn0.bias f4 [25]
000000 34 65 75 bd 6c 14 b6 bd 32 bd 17 3d ef f6 43 bd
       -0.059910968 -0.08890614 0.037045665 -0.047842916
000010 cc 47 19 3d 55 6a 36 3e 78 0e 3d 3b e1 a7 8d ba
       0.037421986 0.17814 0.0028847735 -0.0010807478
000020 85 b9 3b be 57 d6 39 be ab a8 6e bc da e3 55 bd
       -0.18332489 -0.1814817 -0.014566581 -0.05221925
000030 c3 86 b4 3c ea 80 aa 3d 19 5c 7e 3b b8 5a 8f bd
       0.022036916 0.0832537 0.0038812219 -0.06999725
000040 68 a5 6e bd 85 27 1b bd b4 20 88 bd 65 66 1d bd
       -0.058263212 -0.037879486 -0.066468626 -0.03842773
000050 08 2d ba 3d 2d dd f5 3d f8 40 e5 bc da 5d 08 be
       0.0909062 0.120050766 -0.027985081 -0.13317052
000060 0e bd 57 3d
       0.05267053

bn0.running_mean f4 [25]
000000 b5 9f 06 c1 33 17 29 bf 97 cb 20 40 ae 70 b1 bd
       -8.413991 -0.66051024 2.5124261 -0.0866407
000010 74 5f a5 3d 63 68 7e 40 97 cb 20 40 ae 70 b1 bd
       0.08074847 3.9751213 2.5124261 -0.0866407
000020 c8 bf 06 c1 eb b9 29 bf 46 e7 fa 3f 19 a5 89 be
       -8.421822 -0.66299313 1.9601829 -0.26883772
000030 44 04 06 3e 26 24 7d 40 46 e7 fa 3f 19 a5 89 be
       0.13087565 3.9553313 1.9601829 -0.26883772
000040 04 24 07 c1 1b 2a 2d bf ba 2b 09 40 cb e9 63 be
       -8.446293 -0.6764237 2.1432939 -0.22257154
000050 6a 45 26 3e 2f ae 7d 40 ba 2b 09 40 cb e9 63 be
       0.16237417 3.9637563 2.1432939 -0.22257154
000060 e7 af e6 bc
       -0.028160049

bn0.running_var f4 [25]
000000 da 65 41 41 f1 06 90 3f 3c 28 98 43 9d 82 6d 41
       12.087366 1.1252118 304.31433 14.844388
000010 f3 7b e6 41 55 7e 0b 40 3c 28 98 43 9d 82 6d 41
       28.810522 2.1795857 304.31433 14.844388
000020 a0 74 3f 41 e6 fa 8e 3f 2d c1 a3 43 1c 45 78 41
       11.965973 1.1170318 327.5092 15.516872
000030 40 47 e9 41 9f 04 09 40 2d c1 a3 43 1c 45 78 41
       29.15979 2.140907 327.5092 15.516872
000040 d5 23 3c 41 c8 26 8e 3f 85 c6 9b 43 e2 b2 83 41
       11.758748 1.1105585 311.55093 16.462345
000050 73 e3 eb 41 7a 53 02 40 85 c6 9b 43 e2 b2 83 41
       29.48606 2.036345 311.55093 16.462345
000060 c7 66 80 3f
       1.0031365

fcs1.weight f4 [128, 25]
000000 b6 38 86 3e 29 f9 9e 3e ee 80 b4 bd 68 e2 36 bd
       0.26215142 0.3104947 -0.08813654 -0.04464951
000010 67 37 ad 3e ea 5a a1 bd ce 22 89 3d f1 56 de bd
       0.3383133 -0.078786686 0.066960916 -0.108564265
000020 ef 94 56 3e 6a c8 48 3e de a2 86 3c 86 c6 96 be
       0.20955251 0.19607702 0.016435083 -0.29448336
000030 b3 63 58 3e f4 cb 09 3d 58 7a 54 bc 75 b5 8c be
       0.21131782 0.03364177 -0.012968622 -0.2748219
000040 b6 e5 01 3e 9f ec 29 bd 10 9d bd 3d 31 4e 29 3e
       0.12685284 -0.041485425 0.09258473 0.16533734
000050 cf 8c 01 bf 1a 4a 8c be 8d 00 27 3e 84 89 56 3e
       -0.5060548 -0.27400285 0.16308804 0.20950896
000060 61 74 04 bd 2d 17 89 be 40 6f 1e be 46 7d bf 3e
       -0.03233755 -0.26775494 -0.15472126 0.37400264
000070 19 f5 0f 3e 17 5c a8 bd 87 08 a4 3e 9c b3 ea 3c
       0.14058341 -0.0822069 0.32037756 0.028650098
000080 a9 fa d1 bd a6 1f d6 bb aa 0f 7e bd a6 3d 1a be
       -0.10252888 -0.0065345345 -0.062026657 -0.1506258
000090 63 e8 1f 3f d1 b5 1c be 11 df 40 be 20 32 49 be
       0.6246397 -0.15303732 -0.18835093 -0.19648027
0000a0 58 83 1d 3f b7 7f 65 3e f1 8c ed 3c 30 31 15 3e
       0.6152854 0.22412 0.02899787 0.14569545
0000b0 cf 6e 8d be 0a 96 71 bc 97 7d 86 be 7d 25 3d 3e
       -0.27623603 -0.014745245 -0.26267692 0.18471332
0000c0 3d 75 a7 be 79 31 5b 3d 11 fc 44 3e 49 c9 f6 3b
       -0.32706633 0.053513978 0.1923678 0.0075313193
0000d0 d7 57 9d be ed 9b 24 bc 81 cc 46 3e 03 ca e2 bd
       -0.3073108 -0.010046941 0.1941395 -0.11073687
0000e0 5c 0b 89 bd 53 6c 38 bd 5a 27 d1 3a d5 58 0e bb
       -0.0669162 -0.04502518 0.0015957162 -0.0021720428
0000f0 96 be d0 be 4f 1b 86 bc ff dd ca 3e db 08 1e be
       -0.40770406 -0.016370444 0.39622495 -0.15433066
000100 d9 04 e6 be 45 61 2f 3c 70 28 04 be a9 d6 27 be
       -0.44925573 0.010704343 -0.1290605 -0.1639048
000110 64 76 c2 3e b1 5a 37 bc 3c 7b 68 be 1b f1 40 bd
       0.3798095 -0.011191056 -0.2270326 -0.047104936
000120 26 12 8f 3e ea 15 3d 3b 02 b7 05 be 19 cf 56 3d
       0.27943534 0.0028852173 -0.13058093 0.052443597
000130 43 81 15 be da 4b 35 bd f1 dc 49 be a1 fe ec 3d
       -0.1460009 -0.04426179 -0.19713189 0.11572004
000140 ab f1 77 3e 39 0f 07 3c 9e 04 7b be b6 6b 7e 3e
       0.24213283 0.008243375 -0.2451348 0.24845776
000150 aa 65 16 be 1f 96 54 3e 0c 4d 9f bc 72 24 94 bd
       -0.1468722 0.20760392 -0.019445919 -0.07233514
000160 39 db cb 3d c3 df 35 3e 6c 3c a5 bc 85 11 2a 3e
       0.09953923 0.1776114 -0.020170413 0.16608246
000170 70 60 a2 be 7c 21 f6 3d a3 ef f6 bd b5 ea 8a be
       -0.317142 0.120181054 -0.12057426 -0.27132192
000180 d1 b7 a0 be a7 61 57 3d 3a 72 25 bd 46 fe 55 bd
       -0.3139024 0.052583363 -0.040392138 -0.052244447
000190 38 fd fc 3d 25 9e 85 bc e1 71 62 be 48 3b b4 3e
       0.12352985 -0.01631076 -0.22113754 0.35201478
0001a0 d2 ed 68 3e 22 c5 46 3d 10 68 b6 bc a2 c2 9a 3e
       0.22746971 0.048527844 -0.022266418 0.30226618
0001b0 f3 47 45 3d ec 30 3d 3d fa 04 4d 3d d2 43 ea 3c
       0.04816432 0.046189234 0.050053574 0.028596792
0001c0 d5 01 bf 3d 7e 2f c3 bd a4 ba 8a bd fd 1e 63 3d
       0.09326521 -0.09530543 -0.0677388 0.055449475
0001d0 e2 11 c6 3d db 92 81 3d 23 31 1b 3d cf 29 27 3c
       0.096713796 0.063268386 0.037888657 0.010202839
0001e0 60 eb 8b bb fb 74 36 3e f6 df c5 3d 16 2a 04 3c
       -0.0042700022 0.17818062 0.09661858 0.008066675
0001f0 82 56 9a be ec 90 04 be a2 e0 6e 3e 80 3d 9f 3b
       -0.30144125 -0.12945908 0.23327878 0.0048596263
000200 a6 4e 45 3e fd a2 75 3e 6e 25 fd 3d 59 5f 8d 3d
       0.19268283 0.23987956 0.12360655 0.06902952
000210 de a1 1f 3e de 58 74 3d f8 bc 4a 3d 80 fd d6 3e
       0.15589091 0.059655063 0.04949662 0.4199028
000220 0a a3 15 3e a7 6a d3 3e 4e 7d 05 be e8 97 cb 3e
       0.14612976 0.41292307 -0.13036081 0.39764333
000230 5c 0f 5d 3e 46 15 39 be 06 ac a0 bd 0f af e8 bd
       0.2158789 -0.18074521 -0.07845311 -0.11361515
000240 0a 51 21 3d 99 5e 90 be bc 61 23 bd 23 a0 88 bd
       0.039383925 -0.28197172 -0.03988813 -0.06671169
000250 2c c1 30 3e 59 bf 42 be b4 28 48 3e fe 07 53 bd
       0.17261189 -0.19018306 0.19546777 -0.051521294
000260 c9 c5 1b be 9a 12 b2 bc f6 51 e4 bd 6a 0e 9e be
       -0.15212168 -0.021737386 -0.11148445 -0.30870372
000270 14 b3 96 3d d2 d3 3c 3c c4 c6 7a 3e 11 50 27 be
       0.07358375 0.011525111 0.24489886 -0.16339137
000280 cd 7f a6 3d a3 a3 61 3e af e5 eb 3c 3e d9 83 bd
       0.08129845 0.22035079 0.028796045 -0.0643792
000290 12 a8 b1 3d ff bb 89 3e 83 5b 02 be 24 bc 43 be
       0.08674635 0.26901242 -0.12730221 -0.19114739
0002a0 78 d1 8c 3e 18 ca 97 be 95 1f 2a 3d 90 67 fc bd
       0.27503562 -0.29646373 0.041534025 -0.123244405
0002b0 eb b3 48 3e de df 80 be 42 7d ac bc 5b a9 22 be
       0.19599883 -0.25170797 -0.021055821 -0.15884916
0002c0 13 2b 9f bd 90 53 20 be cc 18 ad bd 89 27 85 bc
       -0.07771888 -0.15656877 -0.08451995 -0.016254203
0002d0 5d b7 57 3d b4 e7 0b bd d4 4b 7c bd 2e f0 97 bd
       0.052665103 -0.034156516 -0.061595753 -0.074188575
0002e0 a0 7a 3f 3e c1 2c 5e 3d d2 e8 00 3c c9 d0 3c be
       0.18699121 0.0542419 0.007868009 -0.1843902
0002f0 1f 9f fb bd 70 7f 36 3d e9 6b d4 3d 8e 46 9b 3c
       -0.12286209 0.044555128 0.10372145 0.018954542
000300 8f 52 5c 3e d9 92 02 3f 24 69 13 be a3 de b4 3d
       0.21515869 0.5100532 -0.14395577 0.08831527
000310 a0 f8 72 3d a7 14 ff 3e f7 aa 8e bd a5 b3 4e be
       0.05931914 0.49820444 -0.06966203 -0.20185716
000320 c8 bd a5 bc be ad e2 bd 4a 61 1b 3f ad 8d 64 bd
       -0.020232096 -0.11068295 0.60695326 -0.055799175
000330 b2 0c 12 3e 79 36 8b bb 85 ae 9b 3c d7 0a 63 bd
       0.14262655 -0.004248437 0.019004116 -0.05543026
000340 90 40 5a 3e c0 70 22 3e d3 01 3c 3e ee 42 7e bd
       0.21313691 0.15863323 0.18360071 -0.062075548
000350 ed f6 9a 3d b5 2f 13 be 54 6e fc 3d 39 14 11 ba
       0.075666286 -0.14373668 0.12325731 -0.00055343244
000360 b7 90 0a bd 84 31 84 3e 60 8e 08 3e ce 19 92 bd
       -0.033829417 0.25819027 0.13335562 -0.07133828
000370 0e d1 f3 3c f3 f4 82 3e 41 a0 1b 3e 11 93 21 be
       0.029762771 0.25577506 0.15197851 -0.15778758
000380 ef ec fd bd e0 07 88 3d 37 e7 a2 bd 22 6f c9 bc
       -0.12398707 0.06642127 -0.07954257 -0.024589125
000390 b1 47 15 bd bf a9 2b bd f9 c0 8e bd b0 7b d5 bc
       -0.036445323 -0.04190993 -0.069704 -0.026059955
0003a0 4f b0 6c bd c5 57 c0 3e 26 0c 61 bd 33 24 28 3e
       -0.05778533 0.37566963 -0.054943226 0.16420059
0003b0 11 b1 14 be 5b 9a a8 bc c1 0a 4b 3d 68 cd 31 3e
       -0.1452067 -0.020581415 0.049570803 0.17363513
0003c0 46 0e c6 bd 7c c8 01 3f 41 5c f3 bd 9c 63 f7 bb
       -0.09670691 0.5069654 -0.118828304 -0.007549716
0003d0 c3 9f 51 bd a2 e6 bb be 80 34 65 3d a3 ce ac 39
       -0.05117775 -0.36699396 0.05595827 0.00032960353
0003e0 9e 93 23 3e e2 88 b5 bb 85 62 e2 bc 6e 8c a4 bb
       0.1597428 -0.0055399993 -0.027634868 -0.0050216233
0003f0 b4 7a bd bb 01 de 9b 3d 1f 6a 87 bd ad b4 f6 3d
       -0.0057824496 0.07610703 -0.06612038 0.1204618

fcs1.bias f4 [128]
000000 ba 11 8f be 27 07 01 bf df 62 1d be 59 1c d1 be
       -0.27943212 -0.5040154 -0.15369748 -0.4084194
000010 57 6d 2f be df 54 78 bd 83 5f 60 be f9 51 fc bc
       -0.17131554 -0.060627814 -0.21911435 -0.030800806
000020 c9 87 c1 bd fc e1 03 bf 2f 01 32 be cc f8 ad be
       -0.09449727 -0.515167 -0.17383264 -0.3397888
000030 7b 51 b9 bd 5a 30 96 be 06 38 49 be a7 1e 39 ba
       -0.09048744 -0.29333764 -0.19650277 -0.00070617575
000040 c0 1f a7 bd 96 38 af 3d 97 9a b0 be 91 68 7f be
       -0.08160353 0.08555715 -0.34492943 -0.24942233
000050 ec 86 1c be 2f ff 1a be 3c 9d e8 bb 49 df a7 bb
       -0.15285844 -0.15136407 -0.007098822 -0.005123053
000060 0f 2f bd be af 17 43 be be 4d 8e bd 8d 24 c8 be
       -0.36949965 -0.19052003 -0.06948422 -0.39090386
000070 b4 1c a6 bd ed e8 ab bd 8c ee 1f be 50 ae b7 3d
       -0.081109434 -0.083940364 -0.15618342 0.08968794
000080 8a ae 89 be c5 11 c9 be 53 32 11 be 68 6f e7 bd
       -0.26890975 -0.3927137 -0.14179353 -0.11300546
000090 6e 47 25 3d b7 10 f2 be 8f e8 1f be 7c 5a 45 be
       0.040351324 -0.47278377 -0.15616058 -0.19272798
0000a0 93 65 99 be 0b 18 9f be 39 09 92 3e 63 e3 72 be
       -0.29960307 -0.3107303 0.2852266 -0.23719554
0000b0 dc 3b 2d be d1 0c 5a be b2 76 28 be 14 f4 27 be
       -0.16917366 -0.21293952 -0.16451529 -0.16401702
0000c0 fa cc ac be 8d 3c 39 be d8 7b 28 be a7 71 8a be
       -0.33750135 -0.18089505 -0.16453493 -0.27039835
0000d0 77 8f 95 bd ad f3 9b bc b3 3d 2e be c8 2e 6e be
       -0.07302754 -0.019037092 -0.17015724 -0.23260033
0000e0 fe 9b 6e 3c 68 3c 02 be 2c f0 d2 bd 52 5c 76 bd
       0.014563559 -0.12718356 -0.102997154 -0.060146637
0000f0 74 fe 08 be eb d4 58 be d5 04 66 3e b9 03 fa bd
       -0.13378316 -0.21174972 0.22462781 -0.12207741
000100 43 77 2e be a5 dc 0e be a3 7d 05 bf f8 f5 e0 bd
       -0.17037682 -0.13951357 -0.5214483 -0.10984415
000110 50 29 19 bd c4 ed 9c be 39 6b 83 bd ad ef 29 be
       -0.037392914 -0.3065015 -0.064169355 -0.16595335
000120 20 e2 7d bd f9 98 56 be 20 d4 90 be d6 1b ef bd
       -0.061983228 -0.20956792 -0.2828684 -0.11675231
000130 69 4b 54 be eb 45 57 be ad 20 9e be 8b 2c 81 bd
       -0.20731892 -0.21022765 -0.30884305 -0.06307324
000140 48 42 95 be 1f ca c7 bd dc 09 07 3e fe 72 3f be
       -0.2915213 -0.097553484 0.13187355 -0.1869621
000150 8f 87 5c be 35 1a 8c bd cf eb cb bd f1 dc 6c be
       -0.21536086 -0.06840936 -0.09957086 -0.23131157
000160 45 38 36 3d 24 7e 6a 3d 51 fa 74 3d 93 f5 19 3c
       0.044487257 0.057249203 0.059809033 0.009396928
000170 ce 43 8a be 93 41 8a bd f2 d8 69 be b4 4f d8 be
       -0.27004856 -0.067507885 -0.22836664 -0.4224831
000180 9a ca 4e be b4 14 e3 bd 24 97 6f be 1e 99 92 3d
       -0.20194474 -0.11087933 -0.233975 0.07158111
000190 44 33 a4 be 09 22 96 be 5e af 6b be aa 19 9e bd
       -0.32070363 -0.29322842 -0.23016116 -0.07719739
0001a0 a1 17 a2 bd 37 23 bd be 02 d0 61 be cb 9e ce be
       -0.07914663 -0.3694093 -0.22052005 -0.40355524
0001b0 83 b3 a9 be 2c 5d 29 be f4 23 59 be 17 dd 33 bd
       -0.3314477 -0.16539448 -0.21205121 -0.04391202
0001c0 2e ec 06 be 24 68 80 be c0 ab bd be 84 c3 bd be
       -0.13176033 -0.25079453 -0.37045097 -0.3706323
0001d0 6b 51 8a bc 65 aa ba be 85 f5 3a be a7 1e 40 be
       -0.016884526 -0.36458126 -0.18257721 -0.18761693
0001e0 73 72 00 be 53 e9 7c bb de 85 b4 be 79 a2 02 bf
       -0.12543659 -0.003859122 -0.35258383 -0.51029164
0001f0 48 da ed bd c5 85 8e bd 69 d4 01 bf cf 2a ae be
       -0.116138995 -0.06959108 -0.5071474 -0.34017035

fc2.weight f4 [128, 130]
000000 ef c9 4d 3e 86 f7 90 3e 7b 9f 9d 3d 9f 5f 65 3e
       0.20096563 0.28313845 0.07696434 0.22399758
000010 88 2d 6e 3d 7b 15 75 be 42 72 92 3d 4c 97 66 3d
       0.05814889 -0.23933975 0.07150699 0.05629663
000020 1d 8c 9e bc bf 1e 08 3e 2b 4b 3b 3e 3d c4 81 3e
       -0.01935392 0.13292979 0.18290393 0.2534503
000030 6d c1 39 bb 8c 7a fa be c1 87 57 be 5a 5c 89 be
       -0.002834405 -0.4892162 -0.2104788 -0.2682827
000040 f7 be 35 bd d3 9e 03 bd 9c f1 9c bd 60 8d 02 3e
       -0.04437157 -0.03213389 -0.07663271 0.12749243
000050 07 3f 89 3e 10 0b f7 bc 8f cd 9e bd b4 5c af 38
       0.268059 -0.030156642 -0.07754051 8.3619176e-05
000060 c9 d5 b9 3e ca b8 68 bd e1 fd 04 be 9a 85 2f 3e
       0.36295918 -0.056816854 -0.12987472 0.17140809
000070 7d fa 9e 3d 9d d4 2a 3e f1 dc 02 be 4c 3c dd bc
       0.077626206 0.16682668 -0.12779595 -0.02700629
000080 5a fa ab 3e a7 1c 1f 3e 9c 50 13 bd ff 8e 0c bd
       0.3358944 0.15538274 -0.035965547 -0.03431606
000090 bc 0f 59 be 65 ec 9f 3d 0f 69 10 bd 23 eb a7 3c
       -0.21197408 0.078087606 -0.03525644 0.020497864
0000a0 ea dd 7e bc 0c b8 7c 3e fe c2 bf be 0c 80 9a bd
       -0.015555838 0.24679583 -0.37453455 -0.07543954
0000b0 9c 32 ec 3d 7a 21 a8 bd 25 d2 fe 3d 63 82 f3 3c
       0.115330905 -0.0820951 0.12442426 0.02972526
0000c0 b2 3a a5 3e 7e 06 e2 bd e0 b4 96 be 2c 0d 0a 3e
       0.32271343 -0.110363945 -0.29434872 0.13481587
0000d0 fd f0 d6 bd ab 37 25 3d dd b6 ba 3d fc 38 35 be
       -0.104951836 0.040336292 0.0911691 -0.17697519
0000e0 b9 e6 21 be 3a 9a 72 3d 46 83 1d be 2d aa a1 bd
       -0.1581067 0.059229113 -0.15382108 -0.078937866
0000f0 c4 91 a8 3d 68 58 2b 3d be 7c 94 bb 66 9e 76 bd
       0.082309276 0.041832358 -0.004531472 -0.060209654
000100 ad af 9c 3e ad 3f 81 3d fd 95 ce 3c 4f c5 9f 3e
       0.3060278 0.06310973 0.025218004 0.31205222
000110 14 e9 c3 3b fd e0 ef bd 8e f9 0b 3e c2 3a 32 3e
       0.005978713 -0.11712835 0.13669416 0.17405227
000120 6b 82 ca be 8d e9 00 3e 8d a7 de bd f1 a6 1a be
       -0.39552626 0.12589093 -0.108718015 -0.15102746
000130 15 ee 34 3d 9b 58 95 3d fa ea 06 3e d0 24 42 3d
       0.044172365 0.07292291 0.13175574 0.04739839
000140 f0 f8 23 3d 1a 4b 8c bd 6b f2 8d bd 62 73 36 3e
       0.040032327 -0.06850262 -0.06931003 0.17817453
000150 df 9d 93 3c 6f ac 90 3d 4b 47 e5 bd 48 28 80 be
       0.018019615 0.07064139 -0.11195239 -0.25030732
000160 4d 81 89 3d b4 dc dd 3d e3 32 47 3d 07 3b 1a be
       0.06714115 0.108331114 0.048632514 -0.1506158
000170 06 f0 20 3e 08 75 aa bb a1 e3 5d 3d a1 b3 48 3e
       0.15716562 -0.0052019395 0.054172162 0.19599773
000180 dd 91 d4 3c 10 1f 39 3e 9f 03 4f 3d c8 66 15 3e
       0.02594846 0.18078256 0.050540563 0.14589989
000190 4c 97 e0 3d bd b8 0e be b6 b8 ca 3d 9f e5 c9 bd
       0.109663576 -0.1393766 0.09898512 -0.0985825
0001a0 28 dc 9e be 85 93 e9 3d 15 92 3d 3c 1e 54 c7 be
       -0.3102734 0.1140509 0.011570473 -0.38931364
0001b0 f4 e2 3f bf fe b8 a6 3a b2 02 6e bc 55 87 12 be
       -0.7495568 0.0012719927 -0.01452701 -0.14309438
0001c0 9d 96 18 3e 23 9a 24 be b8 cd 8d be ef c7 ca bd
       0.14901204 -0.16074423 -0.27696013 -0.099014156
0001d0 a5 4f 66 be dd 83 ed be ff b6 71 ba 49 18 ea be
       -0.2249132 -0.46389666 -0.0009220689 -0.45721653
0001e0 12 c9 fc bc a0 67 1c 3e fb 9d 32 3e eb 6c 1b 3e
       -0.030857597 0.15273905 0.17443077 0.15178268
0001f0 58 69 f3 bd f6 ec 5d bd 01 54 84 be 4f a2 58 3e
       -0.11885327 -0.05418106 -0.2584534 0.21155666
000200 20 a4 8c 3d 68 14 08 3c eb 6f 07 3d e2 e8 00 be
       0.06867242 0.0083056465 0.033065718 -0.12588838
000210 52 de b0 3c 76 23 19 bd 91 32 02 3d de 0e 1e bd
       0.021590386 -0.037387334 0.031786505 -0.038588397
000220 ae c3 e9 bc 61 e9 fb bd ca 45 25 bd 52 f7 0c bd
       -0.02853569 -0.12300373 -0.04034976 -0.03441555
000230 bb a0 fa 3c a4 02 f2 bc 4b 66 5e bd 20 ed 8c 3d
       0.03059422 -0.029542275 -0.054296773 0.068811655
000240 57 29 ba 3c e8 73 a5 3c f6 d6 3d 3d e5 d9 dd 3b
       0.02272479 0.02019687 0.04634758 0.00677036
000250 27 bc 0f 3d 04 b0 16 be bc f1 56 bd bd f0 25 3c
       0.035091545 -0.14715582 -0.05247663 0.010128197
000260 4a 58 42 be 13 82 4c be 73 38 70 bd d6 42 dd bd
       -0.18978992 -0.19971494 -0.058647584 -0.108037636
000270 9a 40 1a bc fa db 4e 3d 06 79 62 bc db 4e 27 bd
       -0.009414816 0.050502755 -0.0138228 -0.040846687
000280 de 3e 83 bd ea fb bf bd f1 09 e4 bd a6 03 3a bd
       -0.06408475 -0.09374221 -0.11134709 -0.045413636
000290 d6 fb 66 3c 18 16 03 bd ba c0 31 be d2 f8 17 bd
       0.014098128 -0.032003492 -0.17358676 -0.037102528
0002a0 1e f8 f3 bd 9e 64 9e 3d b6 4e e8 3b 33 f6 20 be
       -0.11912559 0.07734035 0.007089461 -0.15718918
0002b0 13 cf 8e bd c1 35 3a be c4 da 12 be fd 88 3d bb
       -0.0697309 -0.18184568 -0.14341265 -0.0028920763
0002c0 f9 46 5e 3d 33 64 7b bd 9b 60 32 3c 95 6c 5a be
       0.054266904 -0.061374854 0.01088729 -0.21330483
0002d0 3c 5a 0f 3d b9 e6 c1 bd 4a dd d3 bc be dc f3 bd
       0.034998164 -0.09467835 -0.025862355 -0.119073376
0002e0 e9 bd 5e bd 66 53 3c bd f3 81 99 bc 21 c7 f5 ba
       -0.05438033 -0.045977972 -0.018738722 -0.0018751362
0002f0 79 6b e4 3d d6 52 32 bd f0 dd 49 bd 97 4c 54 bd
       0.11153311 -0.04353603 -0.04928392 -0.051830854
000300 73 1c d1 bd 32 ed 28 be 38 90 78 bc ba ec f7 bd
       -0.102105044 -0.16496733 -0.015171103 -0.12105699
000310 95 49 69 bd b2 47 cd bd 2b cb 07 3d 49 31 ce 3c
       -0.05695494 -0.100234404 0.03315274 0.025169985
000320 a6 39 8c bd 2b e1 a5 3d 09 c6 23 be fa 3c 32 3c
       -0.06846933 0.08099588 -0.15993513 0.010878796
000330 9e c2 9d bd c3 ed 22 be 7d fd c2 bd 08 62 2e bd
       -0.07703136 -0.15911011 -0.09521005 -0.04257396
000340 49 66 53 3d ca 11 2d be 03 b8 e0 bc fa 7d 8e bc
       0.05161122 -0.16901317 -0.027431494 -0.017394055
000350 87 bf a5 3b eb c7 24 be e9 96 ae bd 54 66 14 3c
       0.005058232 -0.16091888 -0.085248776 0.0090576
000360 a3 fa 56 bd 0b d1 b0 bd 83 1c 96 3d 71 8c 71 bd
       -0.05248512 -0.08633622 0.07329657 -0.058971826
000370 4d 8b c7 3c 5d 1a f1 bd 2c a8 81 3d 39 1c 19 be
       0.024358416 -0.117726065 0.06330904 -0.14952172
000380 d1 0c 7e 3d c5 5e c3 3d f3 62 ed bd f4 8b d2 bd
       0.06202394 0.0953956 -0.11591139 -0.102806
000390 31 df b8 bd d3 30 0c bc a2 65 98 bd e9 9e 80 3a
       -0.090269454 -0.0085565625 -0.0744126 0.0009812984
0003a0 b1 dc 76 bd 9f f5 4f bd 2b 24 b8 bd 85 0d e8 3c
       -0.06026906 -0.050771352 -0.089912735 0.02832676
0003b0 a3 50 b5 bd 1b 39 a8 bd 03 78 e6 3c d6 b7 b6 bd
       -0.08853271 -0.08214017 0.028133398 -0.08921783
0003c0 ba 12 3e 3d 59 9b 54 be eb 65 a5 bd a6 55 b9 bb
       0.046404578 -0.20762385 -0.0807608 -0.005655962
0003d0 23 f3 3c 3d 6d be 36 3d 43 52 2a be 35 08 07 3c
       0.04613031 0.044615198 -0.16632943 0.008241703
0003e0 90 ec 7e bd 11 1b d3 3c 0e 3f 43 3c 06 cd f8 bd
       -0.062237322 0.025769742 0.011916889 -0.1214848
0003f0 8b b3 ac bd bb 41 42 bd 8d 02 83 bd f4 28 e3 bc
       -0.084326826 -0.047425967 -0.06396971 -0.027729489

fc2.bias f4 [128]
000000 bc 70 de bc 54 fc 52 bd a9 29 b2 bd 64 e3 bb bd
       -0.027153365 -0.05151017 -0.08699352 -0.09174231
000010 e3 4d 12 be e2 4a 19 bd 78 87 2c be 32 10 9a bc
       -0.14287524 -0.03742493 -0.16848552 -0.01880655
000020 11 e7 cd bd b6 eb 44 bd b6 46 eb bc 59 ef 93 bd
       -0.10053838 -0.048076354 -0.028720241 -0.07223386
000030 4e 34 a7 bd 63 6d a1 3c 2e 20 93 bd 84 97 ee bd
       -0.08164273 0.01970548 -0.07183872 -0.11649993
000040 ff 44 ed bd 6d 52 5e 3d 5b 74 d5 bd b4 f2 48 bd
       -0.115854256 0.054277826 -0.10422584 -0.049059585
000050 84 19 7f bb 6f 4f 14 3e 74 8d ea bd 4d 5e dc bd
       -0.003892512 0.14483427 -0.11452761 -0.10760174
000060 bd e0 07 3d 24 89 d5 be 51 7f 6b bd 4e 51 93 bd
       0.03317331 -0.41706192 -0.057494465 -0.07193242
000070 e3 ec e0 3d 88 bf aa 3d d8 82 49 bc 16 53 35 3d
       0.109826826 0.08337313 -0.012299262 0.04426869
000080 d1 11 42 be fe 88 dd bd 71 b6 c2 bb ef de 8b bd
       -0.18952109 -0.10817145 -0.005942159 -0.068296306
000090 1a bc 84 bc 46 c5 6f be db 02 9f 3c 89 10 53 3c
       -0.016202975 -0.23415098 0.019410541 0.01288236
0000a0 89 bd 15 bc 4a ad 7c 3d 11 e1 d1 bd d0 b2 53 3a
       -0.009139427 0.0616887 -0.10248006 0.00080756564
0000b0 c8 c1 ba bd d6 f1 e0 bd 1e dd e6 bd 76 03 97 3d
       -0.09118992 -0.109836265 -0.112726435 0.07373707
0000c0 3b 39 ab 3d b4 0e 9c 3d 30 c8 93 bc f5 61 d5 bd
       0.08360525 0.07619992 -0.018039793 -0.104190744
0000d0 f6 5f 09 be 07 0b 11 bd f8 a1 26 be df fe 38 bd
       -0.13415512 -0.035410907 -0.16272724 -0.04516494
0000e0 23 45 0f 3e 14 c9 32 be 9b f7 bb bd a0 05 76 bd
       0.13991217 -0.17459518 -0.09178086 -0.06006396
0000f0 71 29 06 be 5a 01 13 3e 7b ea 07 be 3b 06 55 bd
       -0.13101746 0.14355984 -0.13273041 -0.052007895
000100 6d 2d 3b bd 96 d7 06 3c 61 2c 07 be 2c e4 ff bd
       -0.04569762 0.008230111 -0.13200523 -0.12494692
000110 29 00 f2 3d f5 af 86 bc 9e 0e 06 be b4 25 c8 3d
       0.11816437 -0.016441325 -0.13091514 0.09772816
000120 17 70 51 be 35 94 ed bd 7a 59 89 bc 5b 61 88 bd
       -0.20452915 -0.11600534 -0.016766299 -0.06659194
000130 d3 00 e1 bc ff 8f 88 bd b3 db b8 bd 87 ed 82 bc
       -0.027466213 -0.0666809 -0.09026279 -0.015982402
000140 74 6c 77 bc b2 43 5c 3d 78 bd 81 bd 29 6a 73 bd
       -0.015101541 0.053775497 -0.063349664 -0.059427414
000150 bb e0 5a bd 3f 91 4a 3e 73 6b 7d 3d 93 a6 f6 bd
       -0.053436976 0.1978197 0.06187005 -0.1204349
000160 44 92 5e 3d 5b 62 ae bc 9f 4f 74 3b 26 b4 ce bd
       0.05433871 -0.021287134 0.0037278903 -0.10092954
000170 49 34 aa 3d cb 71 9d bd 8a 89 bd bd 1e ec cf bd
       0.08310754 -0.0768772 -0.09254749 -0.10152458
000180 27 55 2b bd 4f ec 33 be 2a 7d 3d 3e 62 4d 39 bd
       -0.041829254 -0.17570613 0.18504778 -0.045239814
000190 38 26 d6 bd e3 40 3f 3d 5b 24 7e be 5b 11 8e 3d
       -0.104565084 0.04669274 -0.24818556 0.06936904
0001a0 e7 22 23 3e 62 f8 6c bd 6b 24 ad bd 49 b5 54 3c
       0.15931283 -0.057854064 -0.08454212 0.012982675
0001b0 88 4b 90 be a7 17 95 bd 05 86 b9 bd a1 67 17 3c
       -0.28182626 -0.07279902 -0.09058765 0.009241016
0001c0 04 98 44 bd 99 5c cf bc bd c9 ab bd 5d d2 e4 3d
       -0.047996536 -0.025312709 -0.08388088 0.11172936
0001d0 0c 90 56 bd d8 a5 e6 3c 68 24 22 bd be 89 33 3d
       -0.052383468 0.028155252 -0.0395855 0.043832533
0001e0 39 93 ef bd 28 d3 35 bd 00 38 a2 3c 15 c9 62 3e
       -0.11698002 -0.044390827 0.019802094 0.22147019
0001f0 fb a9 91 bc 74 fd 53 bd fa 4d 3c 3d 3a 91 b7 3d
       -0.017781248 -0.051755384 0.0459728 0.08963247

fc3.weight f4 [1, 128]
000000 e8 51 11 bd 22 c1 35 3c 60 5b 91 3e a9 6e bb ba
       -0.035478503 0.01109341 0.28390026 -0.0014299947
000010 cf 84 00 bc aa 12 00 be 62 b5 26 be 12 1c e4 3a
       -0.007844164 -0.1250712 -0.1628013 0.0017403385
000020 f0 0d df bb 3f c4 6c bb 7b de ff bc ab d4 f3 b9
       -0.0068070814 -0.0036127714 -0.031234017 -0.00046507022
000030 51 57 85 b9 b8 64 f6 3d 2f 9d 7d be d0 3e cb bb
       -0.00025432793 0.12030929 -0.24766992 -0.006202556
000040 46 7f b4 3d 2e fb 10 3d da 27 82 bd 0e 9d a8 3d
       0.08813338 0.035395794 -0.06355257 0.08233081
000050 77 94 16 bc 16 a8 45 3e aa 4d d3 bb 8b 28 db bd
       -0.00919067 0.19302401 -0.0064484673 -0.10701092
000060 96 f2 46 be cb d9 36 3e 09 93 e8 bb ea 3a 0c 3c
       -0.19428477 0.17856519 -0.007097606 0.008558968
000070 0a d4 b9 bd 88 0d ae 3d 1b ec 07 3e a7 72 a3 3e
       -0.09073646 0.08498675 0.13273661 0.3192341
000080 7f f4 39 be 93 09 f5 bb f8 31 50 3d e4 6e bb 3d
       -0.18159674 -0.007477948 0.050828904 0.0915201
000090 cb 1f 06 bb ae 6b 57 3d 4d 2c 6c 3d c9 69 69 be
       -0.0020465727 0.052592926 0.057659436 -0.2279426
0000a0 11 53 da bd 12 bb 9d be 1e 38 1a ba e5 4f 1d 3e
       -0.10660375 -0.30806786 -0.0005882996 0.15362509
0000b0 bc fd 8b bd e5 fc c1 ba d6 d7 d1 bc 0b af 78 3d
       -0.06835505 -0.00148001 -0.025615614 0.06071381
0000c0 21 08 11 bd 71 b3 a3 bd d6 0f 59 3b 96 52 28 3e
       -0.035408143 -0.0799321 0.0033121011 0.16437754
0000d0 55 0c 23 bb ce ba f0 bb 83 3d 08 be 8d 95 df bd
       -0.0024879177 -0.0073464876 -0.13304715 -0.109171964
0000e0 74 bc b1 bd e3 93 0a be b6 c0 3b bb 10 4d ab ba
       -0.08678523 -0.13532977 -0.00286488 -0.0013069231
0000f0 44 d1 4e bd 5f eb 7b bd ca 3c 50 36 49 af b3 3d
       -0.05049254 -0.061503764 3.10298e-06 0.08773667
000100 bc 8d 9d 3e 27 c7 b2 bd f6 f5 b4 3b a3 ba 6e 3e
       0.30772197 -0.087293915 0.005522485 0.23313384
000110 26 ee 96 3d ec f3 d8 3a d5 10 43 3e 6c b2 1c 3d
       0.07369642 0.0016552187 0.1904939 0.038256094
000120 61 1c ae bd 70 cd 09 3a 6e 50 04 be 6e dc c4 bb
       -0.085015066 0.0005256748 -0.12921306 -0.0060077226
000130 58 fb 98 3a 54 95 00 bb 27 0f 6a 3c 1d a0 85 3b
       0.0011671586 -0.0019620256 0.014285839 0.004077925
000140 6c 20 29 bc aa fe e9 3d 56 0e 27 3e 7d f5 52 3e
       -0.010322671 0.114255264 0.16314062 0.20601459
000150 b6 04 64 3d 1c 9f 4c 3d c7 f6 2a be a3 cc 8e 3b
       0.055668555 0.049956426 -0.166957 0.0043578907
000160 e3 c6 ea bd 38 f6 fb bd 4a 52 b2 3c 3f 25 5f bd
       -0.11463716 -0.12302822 0.021767754 -0.05447888
000170 7e b8 93 be ab a1 df 3c 31 68 13 bd ca 1c 0f bc
       -0.28851694 0.027298769 -0.035988037 -0.008734891
000180 2d 23 b5 3a 17 33 51 3e 23 42 8a 3d 20 8f 56 3e
       0.0013819687 0.20429645 0.06750896 0.20953035
000190 3c c8 1d be 9b 30 ce 3d b6 87 1a be cf 52 8c bd
       -0.15408415 0.100678645 -0.15090832 -0.06851732
0001a0 77 89 a8 3c 5d 7c fc 3b 04 60 45 3c 1f b1 14 3e
       0.02057336 0.007705255 0.012046818 0.14520691
0001b0 63 f4 07 be 8c 39 5b 3e fb 99 04 bc 3f b3 62 be
       -0.1327682 0.21408671 -0.008093352 -0.2213869
0001c0 8a 72 7d bb 60 ac dc bd b9 8c 2a be 4c 0d 98 3d
       -0.0038673007 -0.107750654 -0.16655244 0.07424411
0001d0 00 4a 13 3b 1b 73 87 bd 86 7c df 3d ed b4 82 3d
       0.0022474527 -0.066137515 0.10912423 0.06382165
0001e0 1a e1 16 bc c8 88 c9 3e 5d 99 3a 3d 02 32 0e 3d
       -0.009208942 0.39362168 0.045556415 0.03471566
0001f0 1e 5a 59 bd 90 0c 60 bd 63 b8 0a 3e 37 be 34 3d
       -0.053064458 -0.05469948 0.135469 0.044126716
