checkpoint_actor.pth (torch_old, 87178 bytes, 18 tensors)

bn0.weight f4 [25]
000000 0c 31 c8 3e 9d 09 f6 3d c0 32 4f 3e 53 d7 61 3e
       0.3909992 0.12013552 0.20234203 0.22054796
000010 29 38 8e 3f 87 f1 47 3f 4c 22 1c 3c d8 4f 6f 3e
       1.1110889 0.78102916 0.009529661 0.23370302
000020 fd 74 73 bd 80 a6 26 3f 32 f6 24 3e e2 0e 66 3e
       -0.05943774 0.6509781 0.16109541 0.22466615
000030 ac c1 81 3b 05 61 10 3f 38 04 4f 3e 11 dd d4 3d
       0.003959855 0.5639804 0.20216453 0.103937276
000040 27 b1 58 3f fe 4f 01 3f 6b 0c 0f 3e a3 44 2f 3f
       0.84645313 0.50512683 0.13969581 0.68464106
000050 00 3c ab 3f 70 05 81 3f f7 ad 41 3e 03 c6 07 3f
       1.3377686 1.0079784 0.18914019 0.53036517
000060 99 71 1d 3f
       0.6150146

bn0.bias f4 [25]
000000 00 16 eb 39 71 1e 13 3b d8 5a 92 b8 f7 1a 54 39
       0.00044839084 0.0022448564 -6.9787435e-05 0.0002022794
000010 c3 dd f5 bb c6 53 5a bb 69 1a a0 ba d1 c5 6d b9
       -0.0075032427 -0.0033314093 -0.0012214902 -0.00022675774
000020 f3 64 27 b8 af 99 68 39 41 3a 8a 3a ec 79 87 ba
       -3.990992e-05 0.00022182496 0.0010545925 -0.0010336018
000030 c5 f5 f2 3a ec 1e d3 b9 61 4f 06 b9 32 cb 59 ba
       0.001853638 -0.00040268095 -0.00012808807 -0.00083081715
000040 a4 81 16 3a 3e 31 4f 3a 1d 1d 51 3a e0 18 7c ba
       0.0005741364 0.0007903761 0.00079770555 -0.0009616744
000050 c1 52 30 ba c3 d4 7d bb 03 ef e0 3a 66 2a 75 ba
       -0.00067261985 -0.0038731552 0.0017161075 -0.0009352326
000060 93 92 87 3a
       0.0010343365

bn0.running_mean f4 [25]
000000 70 86 06 c1 23 3e 27 bf 2a 6f 25 40 4c 63 05 be
       -8.407822 -0.6532919 2.58491 -0.1302616
000010 1d 14 e4 bc 05 92 7f 40 2a 6f 25 40 4c 63 05 be
       -0.027841622 3.9932873 2.58491 -0.1302616
000020 3c a4 06 c1 40 bf 28 bf c8 d0 0a 40 71 8e 84 be
       -8.415096 -0.65916824 2.168993 -0.25889924
000030 e7 b3 e5 3b 03 35 7f 40 c8 d0 0a 40 71 8e 84 be
       0.0070099714 3.9876106 2.168993 -0.25889924
000040 29 1d 07 c1 28 5f 2c bf fb 70 05 40 1b be 81 be
       -8.444619 -0.67332697 2.0850208 -0.2534035
000050 39 54 22 3d 22 d0 7f 40 fb 70 05 40 1b be 81 be
       0.039631102 3.9970784 2.0850208 -0.2534035
000060 7e ca 7f bc
       -0.015612243

bn0.running_var f4 [25]
000000 62 b5 42 41 a6 d5 8e 3f 16 75 99 43 17 56 71 41
       12.169283 1.115895 306.91473 15.083518
000010 15 16 e1 41 d5 b2 0a 40 16 75 99 43 17 56 71 41
       28.135782 2.167165 306.91473 15.083518
000020 a5 34 3f 41 9e 15 8e 3f de 27 a0 43 38 5f 7a 41
       11.950353 1.1100347 320.31146 15.648247
000030 c0 25 e4 41 16 df 08 40 de 27 a0 43 38 5f 7a 41
       28.518433 2.138616 320.31146 15.648247
000040 fc 77 3c 41 20 8e 8d 3f c9 af 9d 43 ab 32 82 41
       11.779293 1.1058998 315.37332 16.27474
000050 c7 3d e7 41 c6 e0 04 40 c9 af 9d 43 ab 32 82 41
       28.905165 2.076219 315.37332 16.27474
000060 75 3c 80 3f
       1.001845

fc1.weight f4 [128, 25]
000000 90 7c 85 bc 9e 2d 95 3d 16 7a 92 3e a3 3a e4 3d
       -0.016294748 0.072840914 0.2860877 0.111439966
000010 9c 66 91 bd 6a c8 07 3f 7f c6 f5 bd ca f2 29 3e
       -0.07099649 0.5304018 -0.12000751 0.16596523
000020 54 e4 c0 3e 1a 3f 85 3d 84 64 b3 bd 91 3a 85 3e
       0.376742 0.06506176 -0.08759406 0.26021245
000030 a4 d8 3c 3d f6 f0 9b 3d a4 32 6b be 43 ec 1b 3e
       0.046105042 0.07614319 -0.22968537 0.15226845
000040 3b 00 bd 3c 55 f8 f9 3d 6d 75 ab 3d ff da 4e 3e
       0.023071399 0.12205569 0.083720066 0.20200728
000050 9b c1 14 3e 56 8d b4 be d8 22 60 3e 03 7c d1 3d
       0.1452698 -0.3526408 0.21888292 0.102287315
000060 cb 2e 96 3d fd 74 2b bd 17 b1 1a 3e 0b c8 d8 3d
       0.07333144 -0.041859616 0.15106617 0.1058503
000070 aa 64 7e 3e ca 36 94 be b9 9e b3 be 59 be 1f 3d
       0.24843088 -0.2894805 -0.35082033 0.03899989
000080 05 2b 7a 3e 18 2a 59 3d c0 05 2a 3e 9d a8 ad ba
       0.24430473 0.05301866 0.16603756 -0.0013249103
000090 d8 bf 8b 3e 87 0b 1f be 99 8f 18 be 2b a5 18 3d
       0.27294803 -0.15531741 -0.14898528 0.03726689
0000a0 d5 3b 7d 3e 14 46 14 3e c9 72 7b b9 e5 06 3e 3e
       0.24729855 0.14479858 -0.00023979986 0.18557318
0000b0 49 fe d3 bd 19 ce 3a 3e fb 53 03 3e cd b8 2d 3d
       -0.103512354 0.18242683 0.12825005 0.042412568
0000c0 34 e7 bd bd 52 db b5 bd 1a c3 0f 3e 9d 40 f7 3e
       -0.09272614 -0.08879723 0.14039269 0.48291484
0000d0 79 0b 1f be ac d3 e1 bd c7 95 85 be 5e ec 98 be
       -0.1553172 -0.11026701 -0.26090834 -0.29867834
0000e0 df bf 81 3d 74 ee bc bd 58 2e a6 bd 31 3f aa 3e
       0.06335425 -0.09225169 -0.08114308 0.33251336
0000f0 d1 65 a5 bb 17 a7 19 3c d8 8e 07 be 7e 37 76 3d
       -0.005047538 0.009378216 -0.13238084 0.060111515
000100 12 91 b8 bd 90 c3 09 be 19 b8 8f 3d 11 f3 18 3e
       -0.09012045 -0.13453507 0.07017536 0.14936472
000110 d7 5a fd bc aa c9 c5 3d 8e 59 30 be 7a a5 c9 3e
       -0.030927105 0.09657605 -0.17221662 0.3938406
000120 12 8a 69 bd 85 82 21 3e da d6 2a 3d e0 6b 61 3e
       -0.05701644 0.15772445 0.041708805 0.22013807
000130 89 c3 21 bd e0 e8 e4 3d 7e b3 fa 3d a0 76 a4 bd
       -0.039493117 0.1117723 0.12241267 -0.080304384
000140 c1 c8 18 be 63 76 e2 3d 83 05 01 3e 2f ae 07 be
       -0.14920332 0.11057737 0.12599759 -0.1325004
000150 e7 fe ae 3d 07 8c 9b 3e 8a 67 1e 3e 84 45 88 3c
       0.085447125 0.3038027 0.15469185 0.01663471
000160 37 c2 d8 bd f3 dc a5 3e 09 f6 47 3e e6 32 9f 3e
       -0.105839185 0.32395133 0.19527449 0.3109352
000170 ce 96 d8 3d af 66 ca 3e d9 55 53 3e e9 3e a7 3d
       0.10575639 0.39531466 0.20638217 0.08166296
000180 66 06 4e 3d fb 65 c8 3e 73 fd 8c 3e b7 01 83 3e
       0.05029907 0.39140305 0.27537116 0.25587246
000190 68 e6 87 be 80 d8 3f 3e 70 b9 8f 3d 6f d2 21 3e
       -0.26542974 0.18734932 0.07017791 0.1580293
0001a0 cf e9 bf bd 5f c5 bc be 67 8a d5 bc a4 9c b0 3c
       -0.09370767 -0.36869332 -0.026066972 0.021559067
0001b0 77 5a 7c 3e 6e 85 dc 3d 31 82 3e bb 37 68 bf 3d
       0.24643885 0.10767637 -0.00290693 0.09346049
0001c0 b7 ff 7c 3d d2 64 6e be 20 a9 6d bd 74 ce b4 3d
       0.061767306 -0.23280647 -0.05802262 0.0882844
0001d0 f9 94 2d be f4 4f b2 3d a2 58 fd 3e 82 4e ff bd
       -0.1695136 0.08706656 0.49481684 -0.12466146
0001e0 8e ce ae bd 86 23 02 3e c3 41 0d 3f 73 22 1d be
       -0.08535491 0.12708864 0.5517847 -0.15345173
0001f0 3c d3 ae bd 30 34 bb 3d 3e 10 c4 bd a3 a6 26 be
       -0.085363835 0.09140813 -0.095734105 -0.16274504
000200 b0 56 00 3e 54 b7 d3 bd 3f 59 b3 be 0b 9b 51 bd
       0.12533069 -0.103377014 -0.35029027 -0.05117325
000210 00 fa 61 3c c2 1e 40 be d0 4d 8b be 92 f3 70 3d
       0.013792515 -0.18761733 -0.27207804 0.058826037
000220 29 de a5 bd fa ec 86 bd d1 dc 15 be 02 44 41 3d
       -0.08099014 -0.065881684 -0.14635016 0.047183998
000230 74 c7 5f bc 17 0a d7 3e e8 c4 9e be 50 d7 41 3c
       -0.013658393 0.41999885 -0.31009603 0.01183112
000240 96 a3 93 be 40 71 e2 bc 2f ec f6 bd 33 2c 14 3c
       -0.28835744 -0.027641892 -0.12056767 0.009043741
000250 a1 b7 88 be c8 b2 87 3d 0d be 8a 3e 17 82 3e 3e
       -0.26702598 0.06625897 0.27098122 0.18604313
000260 05 bd 82 3c c6 72 04 be 73 a6 88 3c f8 5a c6 be
       0.015959272 -0.12934408 0.016680932 -0.3874128
000270 fe fd dd bd bb 62 22 be 21 01 7b be fa 72 83 be
       -0.10839461 -0.15857975 -0.2451215 -0.25673658
000280 db a9 7b 3e ec ce 43 be dc b9 27 3d 8e 1b c3 bd
       0.24576513 -0.19121903 0.040948734 -0.0952674
000290 d0 2e 60 3e 98 3a ae be 18 2a f1 3d 25 f7 3f be
       0.21892858 -0.34029078 0.11775607 -0.18746622
0002a0 5e b5 a4 3d 53 7a f6 bd 7c c5 9d bd b8 f2 0c 3d
       0.080424055 -0.1203505 -0.07703683 0.034411162
0002b0 bd 42 26 3e 5f 47 cc bd 05 d1 b2 3e 5c 28 09 3d
       0.16236396 -0.099745505 0.34925094 0.033485755
0002c0 a8 ea 4c bd 00 bb 92 3d 2a 46 32 bd a0 71 04 3f
       -0.050028473 0.07164574 -0.043523945 0.5173588
0002d0 fd 42 ce 3d ec 1a a9 bd 86 f4 90 bc f6 b0 83 bd
       0.10071371 -0.08257088 -0.017694723 -0.06430237
0002e0 f4 4e e4 3c c0 34 1a 3d 1b 4b 55 bd 92 50 a2 3d
       0.027869679 0.037647963 -0.05207358 0.07925524
0002f0 7d 02 b8 bc 91 a5 c3 3c 78 00 e9 3c 9d 6a ca 3d
       -0.022462124 0.02388266 0.028442606 0.09883616
000300 ff 6a 6c 3d bb ed bf bc b9 9d 04 bd 4d ff 34 bf
       0.057719227 -0.023428788 -0.03237698 -0.7070206
000310 79 83 65 3b 36 13 83 bb cf 54 62 bd e6 24 6b 3d
       0.003502099 -0.004000093 -0.05525666 0.057408236
000320 b0 9a 55 bd 79 3c 2f be 8c c8 b0 3e da b9 42 bd
       -0.052149475 -0.17112912 0.34528005 -0.047540523
000330 c0 8b 0b be b0 ed c2 3e d5 bd 28 be 7c 56 2b be
       -0.13627529 0.38071966 -0.16478665 -0.1673221
000340 c6 8c 61 bd 8f 7c db bd 1d 9d 9c 3e 07 1b 95 3d
       -0.055065893 -0.10717117 0.30588618 0.07280546
000350 a6 d8 43 3e 7e e4 7b 3e 76 3f 22 3e c6 ab 24 bd
       0.19125614 0.24598882 0.15844521 -0.04020288
000360 db 9e 65 3d af 61 a2 be 8f c7 de bd e1 67 1e be
       0.0560597 -0.31715152 -0.108779065 -0.15469314
000370 93 17 9a 3e 3c 5e 1e 3e b9 ea 67 be cb c0 ee bd
       0.3009611 0.15465635 -0.22648133 -0.11657866
000380 08 83 50 be a5 3b b2 bd e8 3e 5a be 0a 9a 88 be
       -0.20362484 -0.087027825 -0.2131306 -0.26680022
000390 dc 0b fc bd 59 f1 fe bd 90 08 0b be b7 0d 07 3d
       -0.123069495 -0.12448377 -0.13577485 0.032972064
0003a0 26 3f 3b be 49 08 3c be 75 90 88 be 75 db 21 3c
       -0.18285808 -0.18362536 -0.26672712 0.009878983
0003b0 1b da d0 bd 1d a0 8b 3c 94 95 30 be 64 f9 73 3d
       -0.1019785 0.017044121 -0.1724456 0.05956401
0003c0 33 2d fe bd b3 0c 9a bd 73 30 8f be 1a e0 55 be
       -0.12410965 -0.075219534 -0.2796665 -0.20886269
0003d0 e2 aa b8 be ea f8 01 be 9d 15 f0 3c 13 eb 84 be
       -0.36067873 -0.1269261 0.029307181 -0.25960597
0003e0 81 93 79 be 45 84 25 3e dc 29 bd 3e e1 09 23 3d
       -0.24372675 0.16163738 0.36946 0.039804343
0003f0 75 8b a2 3c cd 4a 22 be 04 41 f8 be e3 ef 54 3e
       0.019841889 -0.15848847 -0.48487103 0.20794635

fc1.bias f4 [128]
000000 10 35 0c be 68 37 31 be 57 72 fe 3d d2 b7 fc bd
       -0.13692117 -0.17306292 0.12424152 -0.123397484
000010 1e 2f a2 3d 47 eb e7 3c bb d3 d4 3d c2 03 24 3e
       0.07919143 0.028310431 0.10391947 0.16017058
000020 b5 df de 3d 61 88 f2 bd 1e 96 bf bc 97 60 01 be
       0.108825125 -0.118424185 -0.023387011 -0.12634502
000030 ab 3e 29 bd 13 d1 e3 bc f7 c1 89 bd e1 97 fe 3c
       -0.04131953 -0.027809655 -0.06726449 0.03107828
000040 34 c6 84 3d 93 7e 3b 3d fd 2b fe bd 1f 2d b5 bd
       0.06483117 0.045775007 -0.12410734 -0.08846497
000050 23 f8 ce bd 25 16 76 bd 5d 69 13 3e cc bf dc 3d
       -0.10105922 -0.060079712 0.14395662 0.1077877
000060 7a 6d dd bd e1 ff a6 bd e4 89 98 bd b2 3d 3d be
       -0.108118966 -0.08154274 -0.074481755 -0.18480566
000070 18 14 6f 3d d3 30 65 bd 6b 63 70 3c 9e a6 49 3e
       0.058368772 -0.055954766 0.014672141 0.19692466
000080 76 72 84 bd f2 7f 1f be 76 4c 86 3d a8 23 36 3e
       -0.06467144 -0.15576151 0.065575525 0.1778704
000090 27 08 5c 3d 1a 51 af bd 5a 99 50 3b 5a ee b4 bc
       0.053718712 -0.08560391 0.0031829686 -0.022086311
0000a0 c5 29 f8 3c eb 95 60 3c 3e 16 20 3e 89 5b 94 3d
       0.030293355 0.013707618 0.15633485 0.072440214
0000b0 55 55 26 3e 85 37 bd bd 30 09 ce 3c cd bc a3 bc
       0.16243489 -0.09239105 0.025150865 -0.019987488
0000c0 70 e7 b8 bd d7 d8 84 bd bf 73 c7 3d b8 5b 27 3d
       -0.09028518 -0.064866714 0.09738874 0.040858954
0000d0 2a ef 3c bc 01 03 20 3e 65 4d 07 bd 68 47 07 be
       -0.0115316305 0.15626146 -0.033032794 -0.13210833
0000e0 f6 aa 28 3e e5 27 dc bd cc 6c ce bd b6 33 96 3d
       0.16471466 -0.10749797 -0.10079345 0.07334082
0000f0 57 a2 4b 3e 1d c5 22 be 2b 9b c2 3d 1a ef 8e 3d
       0.19886146 -0.15895505 0.09502252 0.06979199
000100 48 37 76 3d 06 19 d4 3d b6 b2 07 be ea c0 63 3d
       0.060111314 0.10356335 -0.13251767 0.0556039
000110 7b 07 06 be 01 c0 01 be 3d 3d 16 be 4a 33 a9 3c
       -0.13088791 -0.126709 -0.14671798 0.02065434
000120 c7 c7 07 3e d7 cb 9a bd 8c 6a 38 be 68 16 14 3d
       0.13259803 -0.075584106 -0.18009394 0.03615418
000130 76 7d 45 be 4c b0 23 be ca f3 3c be 83 d0 01 bd
       -0.19286141 -0.1598522 -0.18452373 -0.031692993
000140 cb 47 dc bd 18 22 a7 3d 05 a1 10 3e 3d 4f 39 be
       -0.10755881 0.081608 0.14123924 -0.18096633
000150 60 67 5d 3d b8 61 88 bd 47 88 63 bd 60 88 5a 3d
       0.054053664 -0.06659263 -0.055549886 0.053352714
000160 a0 aa 84 3d 4c ed fa 3d b5 90 f2 3d 10 66 ec 3d
       0.06477857 0.12252292 0.11844007 0.115429044
000170 6a 60 e8 bd 35 ae 06 3e 23 0a 97 bd ec d0 8b bd
       -0.113465145 0.13152392 -0.0737498 -0.06826958
000180 0a 77 33 3d e6 09 31 3e b2 11 38 3d cc 87 eb 3c
       0.043814696 0.17288932 0.04493875 0.028751276
000190 c3 c6 bc bd 27 fa 43 bd 12 d1 1b bd a3 3f 2a 3e
       -0.09217598 -0.047845986 -0.03804118 0.16625838
0001a0 da a6 08 bd 03 d7 37 be eb 74 bc bc b6 51 cb bc
       -0.033362247 -0.17953114 -0.02300497 -0.024819236
0001b0 34 36 2e be 64 5d c5 bd 72 90 dc bb 45 97 ec 3d
       -0.17012864 -0.096369535 -0.0067310864 0.1155229
0001c0 aa 72 26 3d 17 bc f2 bc cf a9 b9 bd 87 24 27 be
       0.040636696 -0.029630704 -0.090655915 -0.16322528
0001d0 b3 b6 9c 3d 05 5c 55 bd b1 92 dd bd 5c 85 5b 3d
       0.076520346 -0.05208971 -0.10818995 0.05359398
0001e0 4a e8 2d bc c9 78 8e 3d b6 1d c0 bd 1b 74 2c be
       -0.010614464 0.06956632 -0.09380667 -0.16841166
0001f0 02 5e 73 3d 41 06 80 3b 6b 61 0a be 02 cc 87 bd
       0.059415825 0.0039069955 -0.13513725 -0.06630708

bn1.weight f4 [128]
000000 51 63 09 3f 3e 46 ea 3e b2 a3 fb 3e 56 ae 64 3e
       0.5366717 0.45756716 0.49148327 0.22332129
000010 05 33 cb 3e a3 0e 17 3f 8a 44 2b 3e 67 5a 81 3f
       0.39687362 0.5900671 0.16725364 1.0105714
000020 2c 54 14 3f fd bf 6f 3e cc 8d d5 3e 08 50 1e 3f
       0.57940936 0.23413081 0.41709745 0.6184087
000030 6b 23 19 3f 86 01 d8 3e ba 03 16 3f ff 5d 1c 3f
       0.5981967 0.42188662 0.58599436 0.61080927
000040 98 57 30 3f 0d 99 3b 3f 20 ae d8 3e 42 68 1d 3f
       0.6888366 0.7328041 0.42320347 0.6148721
000050 e4 26 c7 3e c0 f4 21 3f 30 1a 09 3b d1 22 c8 3e
       0.3889686 0.63264084 0.002092015 0.39089063
000060 f6 fa 8d 3e 08 54 d2 3e 4d 1a 6e 3e 2e 0e ab 3e
       0.2773053 0.41079736 0.2325222 0.33409256
000070 23 c9 07 3e db 02 39 3f 49 6a fa 3e 2c ad 0e 3f
       0.13260321 0.7226998 0.48909214 0.5573299
000080 c7 c9 48 3f e2 33 85 3e b8 95 6b 3f 65 09 cb 3e
       0.7843289 0.26016146 0.9202533 0.39655605
000090 ae b0 d8 3d 65 db ad 3e f2 99 a9 3e 5e 92 11 3f
       0.10580574 0.33956447 0.33125263 0.56863964
0000a0 a6 fa 28 3f cf 80 cb 3e 38 fc b6 3e 3c f9 ea 3e
       0.6600746 0.3974671 0.35739303 0.45893276
0000b0 c9 b5 32 3f 73 d0 cd 3e 37 34 f2 3e e5 c5 a8 3e
       0.6980863 0.40198097 0.47305462 0.32963482
0000c0 1c 30 8a 3e 63 8b c7 3e 2f 3f 05 3f 7f 10 1c 3f
       0.2698983 0.3897353 0.52049536 0.6096267
0000d0 08 dc 50 3f c7 fc e8 3e 23 81 a1 3e 4a 4b bf 3e
       0.8158574 0.45505354 0.31543836 0.37362128
0000e0 32 22 da 3e 99 68 fd 3e 56 04 4a 3f e0 7a d3 3e
       0.42604214 0.49493864 0.78912866 0.41304684
0000f0 da a0 08 3f 32 87 d0 3e d8 99 a7 3e 6b 65 e6 3e
       0.5337044 0.40728146 0.3273456 0.4499925
000100 4c f3 2d 3f 55 57 01 3f 07 1c d5 3e 1b 77 8a 3e
       0.67949367 0.50523883 0.41622946 0.27043995
000110 be dc 08 3f 12 f0 5d 3e eb f6 71 3f d3 a1 10 3f
       0.53461826 0.21673611 0.9451739 0.56496924
000120 87 d1 9a 3e b6 5f a0 3e 5b 52 7c 3e 6a b2 c2 3e
       0.30237982 0.31323022 0.24640791 0.38026744
000130 ce 1f 1e 3f c8 63 35 3f 55 c8 43 3f 97 f5 47 3e
       0.6176728 0.7085538 0.7647756 0.19527279
000140 08 99 ef 3e 07 e1 d7 3e 9c 30 b2 3e be 0a 06 3f
       0.4679644 0.4216387 0.3480271 0.5236014
000150 67 c0 8b be 0d f5 c4 3e 07 af 9a 3e 4e a6 ee 3e
       -0.2729523 0.3846821 0.3021166 0.46611255
000160 14 2c 91 3f d1 42 86 3e 67 5b 7d 3e 87 af 6f 3e
       1.1341577 0.26222852 0.24741898 0.23406802
000170 02 02 50 3e fc bc d8 3e c1 a2 f1 3e 94 c9 e2 3e
       0.20313266 0.42331684 0.47194484 0.44294417
000180 10 09 01 3f fd a0 c9 3e c0 2d 09 3f 24 24 1a 3f
       0.50404453 0.39380637 0.53585434 0.60211396
000190 50 88 ae 3e 9e 99 c7 3e cc 9e fa 3e ae 0b 38 3f
       0.34088373 0.38984388 0.48949277 0.7189282
0001a0 8c a2 8e 3e 57 fb 90 3e cb 2c cc 3e 3e bd 14 3f
       0.27858388 0.28316757 0.39877924 0.5810126
0001b0 4c e1 c2 3e b9 87 a4 3e fc 20 19 3f c8 6c c1 3e
       0.38062513 0.32134798 0.59815955 0.37778306
0001c0 d2 a4 ce 3e 72 68 8b 3c 00 d2 ae 3e b5 8f 6a 3e
       0.40360123 0.017017577 0.34144592 0.22906382
0001d0 c5 cb 47 3f 48 d1 ca 3e 31 30 08 3f d0 9c f0 3e
       0.780453 0.39612794 0.53198534 0.46994638
0001e0 1b bb 3d 3f 18 0b c5 3e ee 73 e7 3e 81 67 7e 3f
       0.74113625 0.38485026 0.45205635 0.99376684
0001f0 5c bd e6 3e 19 d9 5b 3f 55 3f f3 3e e6 47 68 3e
       0.45066345 0.8587814 0.47509256 0.22683677

bn1.bias f4 [128]
000000 db 19 eb bd 7d 4a 05 bf 59 f2 8a be 0d e7 e4 be
       -0.11479541 -0.52066785 -0.27138022 -0.44707528
000010 53 0f fa be 73 75 97 be 03 6a 83 be f9 aa 9d be
       -0.48839816 -0.29581794 -0.25666818 -0.30794504
000020 92 34 62 be 17 30 af bd 43 9b 98 be c0 c9 95 be
       -0.22090366 -0.08554094 -0.29805955 -0.29255486
000030 f6 b9 15 bf 8f fa 9d be e9 c7 97 3d 45 ef 87 bd
       -0.5848688 -0.30855224 0.07411177 -0.06637434
000040 23 ee 93 be 48 01 b0 be 5b 91 45 be 16 2c bd be
       -0.2889262 -0.34375978 -0.1929373 -0.36947697
000050 11 39 8c be bd 32 eb be 4d 5e 99 bc bc 38 c3 be
       -0.27387288 -0.45937148 -0.018721724 -0.38129222
000060 2e 75 4b be 7e 23 35 bf 75 00 e7 3d 34 24 32 be
       -0.19868919 -0.7075728 0.11279384 -0.17396623
000070 1c 81 25 be cf ad a4 be 07 d0 5e bc 8f bc d1 be
       -0.16162533 -0.32163855 -0.013599402 -0.4096417
000080 f0 b6 d8 be 93 54 b1 be 1f d4 7e be 1e 47 8a be
       -0.4232707 -0.34634838 -0.24885605 -0.27007383
000090 6a 79 09 bd 1c e2 98 be 1d 1e 8b be b4 b4 34 bf
       -0.033563055 -0.29860008 -0.27171412 -0.7058823
0000a0 7b 75 db be ff 27 a0 be b4 b6 0d be fa 31 66 be
       -0.42863068 -0.31280515 -0.13839227 -0.22480002
0000b0 2c 27 14 bf 99 9d 74 be 76 0e b0 3c 35 32 d3 be
       -0.5787227 -0.23888244 0.02149127 -0.41249242
0000c0 ca 31 d8 be 3d be 30 be c3 97 d4 be ca 3a cc be
       -0.42225486 -0.1726007 -0.41522035 -0.39888602
0000d0 53 23 1a be 8c 64 ac be 41 04 f1 be 23 bd f2 bc
       -0.15052538 -0.3367046 -0.47073558 -0.029631203
0000e0 5e ba 63 be f9 de d7 be bc 49 ad be eb 29 51 bd
       -0.22239062 -0.42162302 -0.33845317 -0.051065367
0000f0 11 14 c1 be ee 5c 38 be 93 84 c6 bd 6e 99 24 be
       -0.37710622 -0.180042 -0.09693255 -0.16074154
000100 b8 9a f1 be 2c b2 9b bd 07 54 d6 be 9a f0 c7 be
       -0.47188354 -0.07602343 -0.41860983 -0.39050752
000110 5f 7b 7f be 13 4a a3 be 19 91 1a 3e a5 a4 c9 3c
       -0.24949406 -0.31892452 0.15094413 0.024614641
000120 72 43 34 be 8c e0 5d be b1 7d 9a be 17 28 8d be
       -0.17603853 -0.21667689 -0.3017402 -0.2756965
000130 81 97 76 be 38 aa b7 be b4 e2 fa bd d8 29 ff bb
       -0.24081232 -0.35872054 -0.122502714 -0.0077869706
000140 6c 64 12 be 8b c3 20 bf e8 9d 3c be 42 4f d0 be
       -0.1429612 -0.62798375 -0.18419611 -0.4068547
000150 08 d9 96 3c bd a5 e2 be 7a e6 b5 be 7d 78 51 be
       0.018414035 -0.44267073 -0.35527402 -0.20456119
000160 c4 bd 8e be 71 00 be be 3b 44 2e bd bb c1 e1 be
       -0.27879155 -0.37109712 -0.04254554 -0.44093117
000170 de 6e 9e be 3b 85 be be 04 f5 b6 be de ba 22 3e
       -0.3094396 -0.37211022 -0.35733807 0.15891597
000180 1c 95 47 be 0d dc 3a be cd 02 af bd cf 38 52 be
       -0.19490474 -0.18248005 -0.08545456 -0.20529483
000190 f3 ca 06 bc 9c ae 01 bf 7e e5 c2 be 81 09 37 bd
       -0.008227098 -0.5065706 -0.38065714 -0.044686798
0001a0 18 75 e3 bd fa bf dc be ea 2b 17 be 50 a3 bf bd
       -0.11106318 -0.43115216 -0.14762846 -0.09357321
0001b0 8f 7c 10 be ff a4 63 be ae e3 51 3e f8 bf 5a 3e
       -0.14110015 -0.2223091 0.20497009 0.21362293
0001c0 9e ea 19 bf 9f 97 26 3e 04 f5 de be d1 03 a3 be
       -0.6012362 0.16268776 -0.43546307 -0.3183885
0001d0 c8 04 ae be 7e f5 6e be fb ab f3 be 83 50 c6 be
       -0.33988023 -0.23335835 -0.47592148 -0.387333
0001e0 8c 41 93 be a4 3b 04 bf f4 e4 11 bf 90 9b c8 be
       -0.28760946 -0.51653504 -0.5698998 -0.39181185
0001f0 9b 3f 15 bf 3a dc db be 4a ba 11 be d8 f3 5e bc
       -0.5830018 -0.42941457 -0.1423122 -0.013607942

bn1.running_mean f4 [128]
000000 93 f7 0b be 64 74 2e be e0 a6 01 3e d2 00 f9 bd
       -0.13668661 -0.17036587 0.12661314 -0.121583596
000010 b2 20 a9 3d b1 3a 00 3d 9b b2 db 3d 7d 9f 20 3e
       0.08258189 0.031305972 0.10727426 0.1568584
000020 c0 0c dc 3d 39 8f f0 bd bc da aa bc 61 c7 00 be
       0.10744619 -0.117460676 -0.020856254 -0.12576057
000030 c3 cd 3a bd b7 67 c9 bc ad 9f 92 bd 30 87 e3 3c
       -0.045606386 -0.024585588 -0.07159362 0.027774423
000040 84 6b 85 3d c9 09 3d 3d aa 48 f7 bd 40 d8 b8 bd
       0.065146476 0.04615191 -0.120744064 -0.090256214
000050 8c 11 d9 bd 4e 36 75 bd 6d 53 13 3e 58 d0 db 3d
       -0.1059905 -0.059866242 0.14387293 0.10733098
000060 7e 71 d7 bd 15 59 a3 bd 4c 9a 8f bd 35 28 41 be
       -0.10519694 -0.079759754 -0.07011852 -0.18862994
000070 ca f4 7c 3d 01 c0 5c bd 03 e6 34 3c b4 75 48 3e
       0.061756887 -0.053894047 0.011041167 0.1957615
000080 a2 b2 83 bd 8d a1 1f be 39 a1 87 3d a7 0e 38 3e
       -0.06430556 -0.1558897 0.06622548 0.1797434
000090 a8 36 55 3d 59 ae af bd 6c 0e 54 3b e8 6f a4 bc
       0.052054077 -0.08578176 0.003235723 -0.020072892
0000a0 62 d3 e0 3c 74 16 86 3c bc a6 1e 3e a6 67 97 3d
       0.027444545 0.016368128 0.15493292 0.07392816
0000b0 38 19 2b 3e fa ae c3 bd 30 be da 3c d0 fe a6 bc
       0.16708839 -0.095548585 0.026702017 -0.020385176
0000c0 0c 56 bd bd 38 ba 89 bd 2b bb cb 3d 17 81 28 3d
       -0.09244928 -0.067249715 0.09947809 0.041138735
0000d0 f0 73 60 bc 74 fc 20 3e a3 54 0e bd fa c5 07 be
       -0.013699517 0.15721303 -0.034748685 -0.13259116
0000e0 3f 9e 29 3e 9d 0f e1 bd 92 61 cf bd 21 53 93 3d
       0.16564272 -0.10989306 -0.10126032 0.0719359
0000f0 b5 d2 49 3e 28 bb 1a be 11 a4 c6 3d c9 b2 97 3d
       0.19709285 -0.15110457 0.09699262 0.074071474
000100 8b 24 72 3d 97 a9 ce 3d 77 fb 05 be 3c 4f 7c 3d
       0.05911688 0.100909404 -0.13084207 0.061599
000110 f6 19 06 be 55 87 03 be 12 09 19 be 12 dd 8a 3c
       -0.13095841 -0.12844594 -0.14944866 0.016951118
000120 e5 a9 08 3e 8a b3 9e bd b5 d4 35 be 77 63 1a 3d
       0.1334606 -0.07749088 -0.17756923 0.037692513
000130 f5 cf 49 be 82 46 23 be 2e 92 3d be f4 a9 e9 bc
       -0.19708236 -0.15944865 -0.18512794 -0.028523423
000140 2d 13 dc bd ef 41 ab 3d 71 db 0d 3e 23 23 37 be
       -0.10745845 0.08362185 0.13853242 -0.17884497
000150 bb 6d 68 3d ac b7 8a bd e8 59 68 bd 5c 8d 57 3d
       0.056745272 -0.06773314 -0.056726366 0.052625045
000160 e9 3b 8c 3d d9 cd ff 3d 74 71 f4 3d 7c 4b ee 3d
       0.068473645 0.12490434 0.11935702 0.11635491
000170 df d2 ea bd ed ca 08 3e d2 f2 9b bd 29 95 86 bd
       -0.11466002 0.1335866 -0.07614674 -0.06571419
000180 a1 39 3e 3d da a4 31 3e 2e fc 2b 3d 66 b9 e2 3c
       0.046441678 0.17348042 0.041988544 0.027676295
000190 3d 75 c0 bd 17 ec 40 bd 75 54 29 bd 23 f3 27 3e
       -0.093973614 -0.047100153 -0.04134031 0.16401343
0001a0 f6 95 08 bd 4f 08 34 be b4 0e a4 bc ca 40 c6 bc
       -0.03334614 -0.17581294 -0.020026542 -0.024200816
0001b0 32 5a 2d be 76 5d c1 bd 48 f2 39 bc 10 20 e9 3d
       -0.16928938 -0.094416544 -0.011349268 0.113830686
0001c0 d8 5c 30 3d ee 6d fe bc 4d a7 b3 bd 8c 8d 22 be
       0.043057293 -0.031058278 -0.087721445 -0.15874308
0001d0 b1 4b 99 3d 92 35 53 bd 0c c2 db bd c2 d4 67 3d
       0.0748514 -0.05156476 -0.10730371 0.056599386
0001e0 70 a7 06 bc 5d 59 92 3d 44 e5 ba bd fd 15 2b be
       -0.008218631 0.07145951 -0.0912576 -0.16707607
0001f0 ae b8 81 3d 28 c8 d7 3a ab 03 08 be 83 df 8b bd
       0.06334053 0.001646285 -0.13282649 -0.06829741

bn1.running_var f4 [128]
000000 1c 45 96 3e 0b 93 42 3e 24 3a c5 3e 5d d4 b1 3e
       0.293496 0.19001405 0.3852092 0.34732333
000010 04 3a be 3e 20 29 01 3f 5d 1f a4 3e 42 68 7b 3e
       0.37153637 0.50453377 0.32055178 0.2455149
000020 fd b8 23 3f e9 76 ef 3e ca 2c 63 3f 70 94 bf 3e
       0.63954145 0.4677041 0.8874022 0.37417936
000030 29 fb 4b 3f 3b 82 bd 3e f0 6f 29 3f 90 7c 8e 3d
       0.79680115 0.3701342 0.6618643 0.06957352
000040 cb 6d 18 3f 1c 9e aa 3e 97 fa 3d 3e 28 df 56 3e
       0.5954253 0.33323753 0.18552624 0.20983565
000050 dd c2 89 3f e1 b4 93 3e f8 2b 94 3c b8 27 3b 3f
       1.0762593 0.28848937 0.018087372 0.7310748
000060 01 8c 21 3f 7d 4a 6a 3f 6e f5 05 3f f2 93 c6 3e
       0.63104254 0.9151991 0.5232762 0.38784748
000070 b0 a6 04 3f 9f ab be 3e 0d 60 4c 3f 83 ca ee 3e
       0.51816845 0.37240312 0.7983406 0.4663888
000080 a9 d9 b0 3e 08 b7 89 3e 7e b1 a4 3e 03 02 85 3e
       0.34541062 0.26897454 0.32166666 0.25978097
000090 21 0a c7 3e 11 9d 9f 3e 0e 4b b2 3e db 1b 9c 3e
       0.38874915 0.3117452 0.34822887 0.30490002
0000a0 a7 47 bb 3e 0e 67 00 3f c6 75 59 3f 1a 5e df 3e
       0.36578104 0.5015725 0.84945333 0.4362648
0000b0 c6 64 d2 3f 1d 41 ab 3e 8c ca c0 3f d7 68 2a 3f
       1.6437004 0.33448115 1.5061812 0.6656622
0000c0 97 b2 28 3e 89 2c 4a 3f ec fa f7 3e e9 fb 60 3f
       0.16474377 0.78974205 0.48433626 0.87884384
0000d0 a4 23 cc 3e 6f b6 a1 3e ea 45 13 3e 6e 50 14 3f
       0.39870942 0.31584498 0.14382139 0.57935226
0000e0 8c bd 6d 3e 4d d4 c9 3d 3b 0a 9b 3e 70 9b b6 3e
       0.23216838 0.09854946 0.30281243 0.35665464
0000f0 48 a7 b8 3e 5f 21 cc 3f 61 9a ad 3e 98 35 6c 3e
       0.36065125 1.5947684 0.33906844 0.2306732
000100 de 21 16 3f 30 a9 07 3f 67 14 e9 3e 13 4a c1 3f
       0.5864543 0.52992535 0.45523378 1.5100731
000110 ee db c4 3e df c3 f3 3e af c6 1f 3f 47 16 1f 3f
       0.38449043 0.47610375 0.6241254 0.6214337
000120 7b 34 2f 3f 3a 8c 45 3e 87 e1 24 3e 6f 86 90 3e
       0.68439454 0.19291773 0.16101657 0.28227565
000130 7f 5d 50 3f e5 f0 69 3e e4 a4 77 3f 77 d5 40 3f
       0.81392664 0.228458 0.9673598 0.7532572
000140 8d af 80 3e 2c 37 e7 3e a4 87 a5 3e dc ee e5 3e
       0.25133935 0.4515928 0.32330048 0.44908798
000150 c6 c8 49 3f ae a6 05 3e 5a b6 41 3e 41 b9 aa 3e
       0.7882198 0.13051865 0.18917218 0.33344463
000160 95 98 c9 3d 48 76 15 3f 9b b9 0f 3f 7e e6 ed 3e
       0.09843556 0.5838361 0.56142586 0.46464914
000170 9a 9e 3e 3f 75 65 8b 3f 5a 90 99 3e 02 06 1d 3f
       0.74460757 1.0890337 0.29992944 0.6133729
000180 26 7a 73 3f e3 e1 52 3e 81 ca 8e 3f 8e 3a 4b 3f
       0.9510826 0.20593981 1.1155549 0.7938622
000190 ec 9c 24 3f 59 d4 11 3f 7c b9 4f 3f b9 b3 12 3e
       0.64301944 0.5696464 0.811424 0.14326371
0001a0 99 13 2e 3f d7 26 59 3e 3d 0b 46 3e 74 f5 3f 3f
       0.67998654 0.21206222 0.19340225 0.74983907
0001b0 ea eb c3 3e 64 84 1b 3e 45 bf 40 3f 6f 7a 2f 3e
       0.38265926 0.15187222 0.75291854 0.17136548
0001c0 9c 74 ac 3e c5 71 2c 3e 5e 69 42 3f 95 5d f3 3e
       0.33682716 0.16840275 0.7594203 0.47532335
0001d0 3f 9c 79 3e 5c 89 e9 3e 8f a2 03 3f 78 7f 24 3f
       0.2437601 0.4561261 0.5141992 0.64257
0001e0 68 ce 82 3f eb 16 d7 3e 21 b3 b1 3e ca 3d 09 3f
       1.021924 0.42009673 0.34706977 0.5360991
0001f0 6e fd 9d 3f eb 28 26 3f bc ce d8 3e 2a c7 1b 3f
       1.2342966 0.64906186 0.42345226 0.60850775

fc2.weight f4 [128, 128]
000000 86 aa 6c be 58 2a e5 3e 99 58 e8 be d0 48 13 3f
       -0.23111925 0.44758868 -0.45380095 0.5753298
000010 0c 4e 6a 3e a3 04 c4 3d e2 bc 84 3e 83 4b 35 be
       0.22881335 0.09571197 0.25925356 -0.17704587
000020 51 1b 98 be 09 67 ad 3c d2 bd 0c 3e 2e 11 0a bd
       -0.2970834 0.021167295 0.13744286 -0.03370779
000030 68 bd a8 3e 73 1f 5b 3e 68 2d 7a 3c eb f1 e0 be
       0.32957006 0.21398716 0.015269615 -0.4393457
000040 be 0a d5 bd 0a cf 25 3e 1e b6 c0 be 35 6d 87 be
       -0.104024395 0.1619226 -0.37638944 -0.26450506
000050 52 4e fa 3e b9 97 94 3d 8b 64 d0 3c 6b 15 44 3e
       0.4888788 0.07255501 0.025438568 0.19148795
000060 9b bf 68 3d 68 5d b6 be 39 ae 22 3d 33 f1 f3 bc
       0.056823354 -0.35618138 0.039716933 -0.029778099
000070 3c 29 a3 bd 45 e9 95 3c 09 b1 78 3d cd ee 63 be
       -0.07966849 0.018299708 0.06071571 -0.22259064
000080 d1 72 d3 3d 38 63 84 3e 40 7e 4d 3e 13 99 43 3e
       0.10324634 0.25856948 0.20067692 0.19101362
000090 58 a2 18 bd 6e 08 98 be b9 4d 7f 3e f9 42 d9 be
       -0.037264198 -0.2969393 0.24931993 -0.4243391
0000a0 c5 f8 96 bd 92 a6 24 bd 7b 3d 9b bd 26 4a ef 3c
       -0.07371668 -0.040197916 -0.07580086 0.029210161
0000b0 a1 a8 48 be d9 ef 0d bf d9 58 87 3c 6c 10 8d be
       -0.19595577 -0.55444103 0.016521858 -0.2755159
0000c0 27 71 60 bd e1 2d 63 3e b6 50 6f be 93 be 9b 3d
       -0.05479541 0.2218547 -0.23370633 0.076047085
0000d0 4b 49 8a 3e f3 78 b6 3e e9 52 c7 bd 19 a5 9a be
       0.27009043 0.35639152 -0.09732611 -0.30204085
0000e0 cf 7d ad bc 16 9e ad 3e 09 8a 7e be 81 db 13 be
       -0.021178154 0.33909672 -0.24857344 -0.14439203
0000f0 86 7f 3c be f3 b6 01 be 1e 4f 97 be 99 2a 90 bd
       -0.18408021 -0.12667446 -0.2955255 -0.07039375
000100 88 e8 47 be fe fd fc bd aa ca be 3e dd 2c 2e 3d
       -0.19522297 -0.12353133 0.37263995 0.042523254
000110 45 e1 bc 3e 1e 23 96 3e 23 67 3d 3e 52 f0 43 be
       0.36890617 0.29323667 0.18496375 -0.19134644
000120 8a 10 d4 3e 24 cb a5 be 30 de 97 be a5 c7 ba 3c
       0.41418868 -0.32381546 -0.29661703 0.022800276
000130 0d f8 54 3d 3e 75 4e 3e b6 47 08 3d bd 9d 08 3e
       0.051994372 0.20161912 0.033271514 0.13341422
000140 d8 25 a2 be a2 c1 31 bd 2e ea c3 bd a4 ef 24 3c
       -0.31669497 -0.043397553 -0.095661506 0.0100669
000150 15 ed 11 be ef 2f e6 bd 5a 65 0b 3e 3d 3b 91 3d
       -0.14250596 -0.11239611 0.13612881 0.07091377
000160 e6 2a e3 bb ce c2 5b bd 8e 1e 82 bd 77 ef 5b 3c
       -0.006932604 -0.053652577 -0.06353484 0.013423792
000170 ea 57 87 3c 72 ff 91 3c 97 1e 2e 3e 32 19 9e 3e
       0.016521413 0.017822001 0.17003857 0.30878597
000180 3f 4e 73 3d e5 3e b7 3d 7e 01 46 3d ef e9 1e be
       0.059400793 0.08947543 0.048341267 -0.15518926
000190 f6 bb 08 3d ec ae 32 be 23 8d 12 3d c0 6d b2 be
       0.03338238 -0.1744954 0.03577913 -0.34849358
0001a0 77 37 87 be b6 80 a3 3d 66 65 af b9 1e 80 90 bd
       -0.26409504 0.07983534 -0.0003345415 -0.070556864
0001b0 22 c8 06 bf 3b d6 69 be 26 0f 1c 3c 1b b0 d2 3e
       -0.5264913 -0.22835629 0.009525096 0.41149983
0001c0 6a 8d 64 3d 31 72 9a bd ff da a9 be 5e ba 80 3d
       0.055798925 -0.075413115 -0.33174893 0.06285547
0001d0 98 4d 29 bd 1d dd 53 3e 0a ff 9e 3d cc 3f c4 3d
       -0.041333765 0.20689817 0.077634886 0.09582481
0001e0 de 2f d1 3d 56 f6 1a 3e 87 7e e1 bd 0d 98 e2 bd
       0.10214208 0.15133032 -0.11010461 -0.11064158
0001f0 65 2c f5 3c da 91 b4 bc 44 6e 5e bc e1 5f 44 3e
       0.029928396 -0.022042204 -0.013576094 0.191772
000200 cb 2d fa 3d cb 43 1c 3e fc 4c c0 3d 4a a2 25 bf
       0.122157656 0.15260236 0.093896836 -0.6470076
000210 64 cd 03 3e a2 39 5c 3e 06 64 65 3e 82 ee e5 3c
       0.12871319 0.2150636 0.22401437 0.028067831
000220 69 23 bc 3d 4d 94 35 3d c0 4d 96 be f3 07 fe bd
       0.091864415 0.044330884 -0.29356194 -0.1240386
000230 27 07 01 3e 1d 23 b0 3c c0 f8 d1 bc a0 78 db bd
       0.12600385 0.021501118 -0.025631309 -0.10716367
000240 d1 76 71 bc 3f 14 a4 be 32 30 30 3e b7 22 d1 3d
       -0.014737801 -0.32046697 0.17205885 0.102116995
000250 89 06 15 3f 9a 6d ae be 73 e3 96 bd 1b 7c 95 3e
       0.58213097 -0.34067994 -0.07367601 0.29196247
000260 6f dc 04 3e aa 31 8a 3c 37 85 95 3d 2e d3 9a be
       0.12974714 0.016869385 0.07300799 -0.30239242
000270 92 d0 97 3e 74 7d 36 3e ff 23 da 3d c7 b7 19 bd
       0.29651314 0.17821294 0.10651397 -0.03752878
000280 1d 22 62 bd c8 11 84 3e 18 b7 ee bd 12 df 15 3d
       -0.055208314 0.25794816 -0.11656016 0.03658969
000290 26 82 19 3c 7d f3 02 3d 2c ac 27 3e fe 4b 9b 3e
       0.009369409 0.03197049 0.16374272 0.30331415
0002a0 9c 42 92 3e d0 93 3b 3e 00 33 61 3e be 2d 31 3e
       0.28566444 0.18318105 0.21992111 0.17302606
0002b0 63 01 ac 3d 58 85 bf 3e fd d9 92 3e 18 b9 84 3c
       0.08398702 0.3740642 0.28681937 0.01620154
0002c0 c5 87 35 3d ea 87 8e 3e e4 d2 f0 3c c7 e5 82 3c
       0.044318933 0.2783807 0.029397435 0.015978707
0002d0 94 5f 2b bd e6 6a 95 be e2 9b 43 bd 43 2c b1 3d
       -0.041839197 -0.2918312 -0.047756083 0.086510204
0002e0 32 35 1c 3e c6 73 01 bf c4 2e 5a bf 90 e5 ab bc
       0.15254667 -0.5056728 -0.8522761 -0.020983487
0002f0 99 7b 0a be 8f 89 d7 3e 08 5b b4 bd ec 46 44 3e
       -0.13523711 0.42097136 -0.08806425 0.1916768
000300 ff e6 41 3e 83 f9 4e be d3 de 46 be 4d b3 97 bc
       0.18935774 -0.20212369 -0.19420938 -0.018518114
000310 dd c1 3d bd 3e 36 8f be bd 9b 52 be 9c 6f cd 3d
       -0.04632746 -0.2797107 -0.20567222 0.100310534
000320 e0 30 74 be 2a 99 ae 3d ee 9e 89 bd d5 a4 ff 3d
       -0.2384677 0.085253075 -0.067197666 0.12482611
000330 f3 86 58 3e 05 4e 53 3e ed 70 ae 3e 0c f5 ae bd
       0.21145229 0.20635231 0.3407053 -0.08542833
000340 a6 82 8e bd 41 0d 62 3d 84 f6 b1 bc 5f f9 82 3e
       -0.06958513 0.05518842 -0.021723993 0.2558088
000350 25 8f 31 3e a0 56 97 3e 02 7a 0a bc 48 b6 e0 3c
       0.17339762 0.29558277 -0.0084519405 0.027430668
000360 8b 99 7e be ad 79 ad bd 87 0e d7 3d 19 cb 2b bd
       -0.2486326 -0.084704734 0.10500818 -0.041941736
000370 4e 18 37 3e dc 20 78 bd 86 d2 78 3e 42 aa 74 3e
       0.17880365 -0.060578212 0.24299058 0.23893073
000380 e6 80 12 be e7 a8 f3 3d 6e 7c 5d 3e ce c9 ed 3d
       -0.14306983 0.1189745 0.21629497 0.11610757
000390 0b a6 0b 3d 71 f2 9a bd b8 fa 0c be 87 24 b3 bd
       0.034093898 -0.07565773 -0.13767517 -0.087472014
0003a0 71 fa c5 3e fe 55 c9 be 1f 14 e2 3e 76 11 1e 3e
       0.38667634 -0.3932342 0.44155976 0.15436348
0003b0 78 f8 50 be f8 77 c3 be d0 e7 26 bd 5c 01 76 be
       -0.20407283 -0.38177466 -0.040748417 -0.24023956
0003c0 63 59 14 3e 00 d9 92 bd c6 6e 14 3e 56 30 22 3e
       0.14487223 -0.07170296 0.14495382 0.15838751
0003d0 ed 05 e5 bc 5b cc df bd dc 89 c5 bc 2a 54 00 3f
       -0.027956927 -0.109276496 -0.024113588 0.50128424
0003e0 da a9 c1 3d 4e 67 49 3e ac 0d 0e 3e 4b 3d 1c 3e
       0.09456225 0.19668314 0.13872403 0.15257756
0003f0 eb 98 68 be 0b e6 6c bd 08 09 ca 3d 6f 59 cf bd
       -0.22714584 -0.057836574 0.09865004 -0.1012448

fc2.bias f4 [128]
000000 ba 45 96 bd 3f 9f 2e 3d ea ce e1 3c 08 14 a7 3d
       -0.07337518 0.042632338 0.027564485 0.081581175
000010 30 a9 a1 3d 2a e8 6d bd d8 61 9e 3d 7d 7f a1 bd
       0.07893598 -0.058082737 0.07733506 -0.078856446
000020 7c a5 04 bd 62 03 86 3d 0b 18 4c 3a fb 7c dd 3c
       -0.03238438 0.06543614 0.0007785565 0.027037134
000030 31 f2 71 3d 3b 8d 31 bd e8 d9 ef bc 50 1b 28 bd
       0.059068862 -0.04334758 -0.02927871 -0.041041672
000040 cc 8f f4 3c 88 73 bc bc 8d ac 02 3d d7 0f 7b 3d
       0.029853724 -0.023004308 0.03190284 0.061294403
000050 e2 cc 9c 3d da 2c 9b 3d be 86 65 bd 0d 91 4d 3d
       0.07656266 0.07576914 -0.056036703 0.05018716
000060 ee 95 76 bd 76 ab c9 bb 3d b5 a7 3c fa 11 54 bd
       -0.060201578 -0.006154473 0.020472163 -0.051774956
000070 6d 71 d1 3b ec 12 4c bc 96 44 cc bb c8 33 94 3d
       0.0063916952 -0.012455683 -0.006233762 0.07236439
000080 b4 ce 9d 3c 48 5b 8c 3d 64 ce 80 bd 0f 96 9d bb
       0.019263603 0.06853348 -0.06289366 -0.004809148
000090 4c 9e 2b bd 7d f2 ff 3b d0 3a 8b bd 02 00 0e bd
       -0.04189901 0.0078108893 -0.06798327 -0.034667976
0000a0 9a 54 61 3d 24 67 97 3d 4c 9d 3b bd 2b 2f 8c 3b
       0.055012323 0.073927194 -0.045804307 0.004278084
0000b0 69 3f b3 bd 18 7d 13 bd 68 09 29 bc d8 19 e9 bc
       -0.08752329 -0.03600797 -0.010317184 -0.028454706
0000c0 ac af 9f 3d 60 a0 b4 bd f0 a5 a4 3d 9a 74 18 3d
       0.077971786 -0.088196516 0.080394626 0.037220575
0000d0 e2 8a 7a bd 51 5f 82 3d b7 bb af bd d4 de 02 bc
       -0.061167605 0.063658364 -0.08580726 -0.007987697
0000e0 ab bf 7a bd de 54 b0 bd af 2c 62 3c 46 55 5f 3d
       -0.061217945 -0.08609937 0.013804599 0.054524682
0000f0 dd 2c 3b bd 1a 89 b2 bd dd e9 b6 3a 21 23 5b 3d
       -0.04569708 -0.08717556 0.0013955195 0.0535003
000100 2f 9f b1 3d 0d a7 8e bd 23 2a 31 3d 0b 9e 95 bd
       0.0867294 -0.06965456 0.043253075 -0.07305535
000110 c7 fb 06 bd c1 01 30 3c 9f d4 b7 3c e4 3a 0e 3d
       -0.032954957 0.010742606 0.022440253 0.03472413
000120 ca e8 b0 3d dd 44 91 bd 5b b4 67 bd 5c 9f 1a 3d
       0.08638151 -0.07093213 -0.056568485 0.037749633
000130 f6 b1 37 3d da 0b 8f 3d 76 a0 40 bd 86 26 64 bd
       0.04484745 0.069846824 -0.047028027 -0.0557008
000140 39 34 cb 3c 10 ef 96 3d 36 f3 54 bd 9f a1 04 bd
       0.024805175 0.07369816 -0.051989757 -0.032380696
000150 82 4a a0 3d 1b 01 3b bd 3b 7f 18 3d 35 52 ae 3d
       0.07826711 -0.04565535 0.03723071 0.085117735
000160 66 51 88 3d 39 d3 47 bd f3 89 99 3d c8 18 53 39
       0.066561505 -0.048785422 0.07497015 0.0002013176
000170 c7 c9 91 bc 5a 5a 96 bd 5e 29 a7 bc 07 f0 8a bd
       -0.01779641 -0.07341452 -0.020405468 -0.06784063
000180 b1 73 88 3d b3 9d cd 3c 90 1a 86 bd 8c 63 94 3d
       0.066626914 0.02509961 -0.06548035 0.072455496
000190 4d b6 81 3d 41 5b ea bc 41 cb 4d 3d c8 7c 76 3c
       0.06333599 -0.028607966 0.050242666 0.015044399
0001a0 27 37 e5 3b 63 47 a2 3d 6c 8b 43 3d f6 05 9c 3d
       0.0069951 0.07923772 0.047740385 0.076183245
0001b0 2e 9b dd bc 1c 36 18 bd 7c 26 7f 3b 57 cd 1c bd
       -0.027051535 -0.037160978 0.003893285 -0.038281765
0001c0 52 7f 9f 3c 7a 37 b4 3d e8 2e a8 3d a5 90 37 bb
       0.01946989 0.08799644 0.08212072 -0.00280098
0001d0 e1 84 11 3c 8d 43 dc 3c b2 20 32 bd 7b c9 2b bd
       0.008881778 0.02688768 -0.043488212 -0.041940194
0001e0 f0 11 6a bd 77 24 a2 3c 00 9a 8c 3d c2 c3 d7 3c
       -0.057146013 0.019792778 0.06865311 0.026338462
0001f0 6b ce 81 3d 06 ae 57 3d cf da a9 bd 1b e0 1f bd
       0.06338199 0.052656196 -0.082936876 -0.039032083

bn2.weight f4 [128]
000000 9a 77 ce 3f b8 66 f1 3f a3 99 8a 3f 50 6b 8c 3f
       1.613025 1.8859472 1.0828136 1.0970249
000010 b6 9f 47 3f 9d f0 b2 3f 2f c5 90 3f 9d 3c a0 3f
       0.77978075 1.3979679 1.1310176 1.2518498
000020 80 f2 4e 3f 2b f1 c6 3f b9 3f dd 3f df 86 99 3f
       0.80838776 1.5542349 1.7285072 1.1994284
000030 a2 9f f2 3f 13 24 cf 3f 25 ce b1 3f 52 fa 9a 3f
       1.8954966 1.6182884 1.3891035 1.2107642
000040 11 6f 96 3f 86 8f cc 3f 9a af 43 3f 53 3c b3 3f
       1.1752645 1.59813 0.7643982 1.4002784
000050 6f 9f 0a 40 78 9b a2 3f f4 c5 9a 3f 43 fe 76 3f
       2.165981 1.2703695 1.209166 0.9648172
000060 a2 8e e7 3f bd 20 79 3f d0 aa 5c 3f 4c dd a3 3f
       1.8090403 0.9731558 0.8619814 1.280191
000070 31 96 af 3f 45 1e e4 3f 48 cc b5 3f cb fb ca 3f
       1.371771 1.7821738 1.4202967 1.5858091
000080 91 db 22 3f e0 da ac 3f b3 87 82 3f f9 9c 9e 3f
       0.6361628 1.3504295 1.0197662 1.2391654
000090 02 0d 89 3f 4c f6 68 3f d5 31 a2 3f 4e 1b 67 3f
       1.0707095 0.9100082 1.2671458 0.9027604
0000a0 a0 b6 f3 3f 1c 7c c0 3f 98 64 8c 3f ee c0 9f 3f
       1.9040108 1.5037875 1.0968199 1.2480752
0000b0 28 e8 a6 3f 6c 10 be 3f 65 69 06 40 43 7b eb 3e
       1.3039598 1.4848762 2.1001828 0.4599248
0000c0 45 64 d0 3f 8a c6 de 3f 2c 3c cd 3f 04 d4 d6 3f
       1.62806 1.7404339 1.6033988 1.6783452
0000d0 02 95 63 ba 20 38 ed 3f 09 d4 22 3f 40 cf 98 3f
       -0.00086815667 1.8532753 0.6360479 1.1938248
0000e0 d4 f2 c2 3f 79 e3 9c 3f 6e b8 88 3f 55 01 99 3f
       1.5230355 1.2256919 1.0681283 1.1953532
0000f0 60 a2 97 3f 3b 19 bc 3f 97 94 58 3f 3e 79 bc 3f
       1.1846428 1.46952 0.8460173 1.47245
000100 3a 25 aa 3f 09 04 70 3f 1b ba 7b 3f 31 65 60 3f
       1.3292611 0.9375616 0.9833085 0.87654406
000110 a7 b7 a2 3f 3c cc a1 3f 33 6a 5c 3f f2 c0 ce 3f
       1.2712296 1.2640452 0.8609955 1.6152632
000120 05 c0 55 3f 65 06 2b 3f ff 59 a3 3f ac 9a 74 3f
       0.83496124 0.6680663 1.276184 0.9554851
000130 2d ac a1 3f 55 b2 6f 3f 9f bf f2 3e a1 48 92 3f
       1.2630669 0.9363149 0.4741182 1.1428415
000140 de 57 c0 3f 53 f7 90 3f 8c 67 c1 3f 0f f8 8a 3f
       1.5026815 1.1325477 1.5109725 1.0856951
000150 d0 ea aa 3f 66 54 b7 3f a2 66 b7 3f 63 c9 5c 3f
       1.3352909 1.4322631 1.4328196 0.8624479
000160 11 05 86 3f a8 2d aa 3f 45 90 5d 3f a6 4c f6 3f
       1.0470296 1.3295183 0.8654826 1.9242141
000170 f4 72 86 3f 54 6b bc 3f af b9 cb 3f a5 08 71 3f
       1.0503831 1.4720254 1.5916041 0.94153816
000180 ac 55 fd 3f 72 72 46 3f 9f 5a 82 3f 07 2b 20 3f
       1.979177 0.7751838 1.0183905 0.62565655
000190 48 77 aa 3f c6 51 74 3f 2c a3 8f 3f 1e 15 78 3f
       1.3317652 0.95437276 1.1221671 0.9690722
0001a0 24 f6 b0 3f 52 f8 a8 3f 0c c9 a1 3f 26 60 b2 3f
       1.3825116 1.3200781 1.263948 1.3935592
0001b0 0c ec c2 3e 45 5c c4 3f d8 a6 80 3f 1f 0e cf 3f
       0.38070714 1.5340658 1.0050917 1.6176184
0001c0 e1 a7 e8 3f 83 51 e8 3f 6c ed aa 3f 1c fd fb 3f
       1.8176233 1.8149875 1.3353705 1.9686618
0001d0 af 0f 8a 3f d0 41 c5 3f c8 22 9d 3f 08 e1 f2 3f
       1.0786036 1.5410709 1.2276239 1.8974924
0001e0 2a 41 a6 3f e8 14 b6 3f c8 94 ce 3f 7c 65 c4 3f
       1.2988636 1.422513 1.6139154 1.534347
0001f0 60 ea 57 3f 0e e6 8f 3f a4 0e 8b 3f 73 df a8 3f
       0.84342 1.1242082 1.0863843 1.3193191

bn2.bias f4 [128]
000000 11 b6 a5 be 07 4f 23 3b df 14 87 be 83 61 15 be
       -0.32365468 0.002491893 -0.2638311 -0.14587979
000010 01 41 79 be 77 25 08 be 13 fe 63 be b7 08 13 bf
       -0.24341203 -0.13295542 -0.2226489 -0.5743517
000020 d4 db 1e bd 95 69 2f bf ce 5d bd be 14 60 fe be
       -0.038783863 -0.6852048 -0.3698563 -0.49682677
000030 0e 0c b9 be c6 32 11 bf ec 28 8b be 1e 42 02 bf
       -0.3614201 -0.567181 -0.27179658 -0.50882137
000040 a6 a6 81 be 80 a2 1b be 7f c1 6b be d5 3f f4 be
       -0.25322455 -0.15198708 -0.23023032 -0.4770495
000050 f0 5e ec be f3 5f 27 bf 76 1b 1e bf 0b 02 1c be
       -0.46166182 -0.6538078 -0.6176065 -0.15235154
000060 6e 87 d7 be 7d b8 a9 bd 5b 84 75 3d eb 57 c0 be
       -0.42095512 -0.082871415 0.059940677 -0.37567076
000070 6e e8 80 be 82 cf 98 be b2 c3 42 be 58 bb 0e bf
       -0.2517733 -0.29845816 -0.19019964 -0.55754614
000080 4b 57 09 3d 1a a6 14 bf 7a d2 b5 be bc eb 20 be
       0.033530515 -0.5806595 -0.35512143 -0.15714926
000090 fc b8 b6 be 76 7a 12 bf df f5 60 be 17 21 60 bd
       -0.35688007 -0.5721811 -0.21968792 -0.054719057
0000a0 20 d4 13 bf 36 65 b5 be 83 79 b3 be 4b 33 fe be
       -0.5774555 -0.3542878 -0.35053644 -0.49648508
0000b0 70 93 44 be 28 2d ec be 38 89 d6 be 22 ce 51 be
       -0.19196868 -0.461282 -0.41901565 -0.2048879
0000c0 00 5a 10 bf 11 f5 a0 be c1 c3 89 be cb 8d c3 be
       -0.5638733 -0.3143697 -0.2690716 -0.38194117
0000d0 7d 83 b1 bb 7f b6 53 bd 69 3c d7 bd 81 f1 be be
       -0.005417286 -0.051687714 -0.10509569 -0.37293628
0000e0 f2 5e d7 be a6 ad ee be 8b fd f7 bd 97 c8 0c bf
       -0.42064625 -0.46616858 -0.12108906 -0.54993576
0000f0 96 9e 7d be 82 23 9d bb 5a 0c a6 bc 61 97 0b bf
       -0.24767527 -0.0047954926 -0.020269562 -0.5452786
000100 aa 31 33 be d2 7a e7 be 1f 4b 22 bf dd af c8 bd
       -0.17499414 -0.45210892 -0.63395876 -0.09799168
000110 9a 0e a8 bc 5f 60 a6 be 3e 0f 7d be d7 72 bf be
       -0.020514775 -0.324954 -0.24712846 -0.37392303
000120 95 c9 cf 3d b2 ad a3 be 7e 90 aa be 61 1f 8b be
       0.101458706 -0.31968457 -0.33313364 -0.27172378
000130 ba 23 2e bd 62 f8 5a be 25 a1 07 bd e8 f8 19 be
       -0.04251454 -0.21383813 -0.033112664 -0.15036356
000140 5d 2c b1 be 34 9c 14 bf 2f d5 c2 bd e8 d1 47 be
       -0.3460416 -0.5805085 -0.09513318 -0.19513667
000150 0f 8e 19 bf 42 76 b1 be 73 5f 1b bf 8f 14 a5 be
       -0.5998239 -0.34660536 -0.6069252 -0.32242247
000160 9d 2e 9c be 5e d1 cb be 81 7d 4e be 2d a8 de be
       -0.30504313 -0.39808172 -0.20165063 -0.43487683
000170 57 ca 35 be 46 c7 a2 be f9 d6 25 bf 33 b1 12 bf
       -0.17752968 -0.3179266 -0.6478115 -0.57301635
000180 7e 02 52 be bc 64 e8 be 53 6b 8b bd fc f0 24 bc
       -0.20508763 -0.45389354 -0.0680758 -0.010067221
000190 ae d6 c4 be f1 2c b5 be 89 62 dd be a6 11 e2 be
       -0.38445038 -0.3538585 -0.4323924 -0.4415409
0001a0 62 be 82 be 8c b1 d5 be 78 39 1d be fa 79 cf be
       -0.25535876 -0.4173702 -0.15353954 -0.40522748
0001b0 45 09 2d be 55 7d 3c bf b8 42 02 bf b3 c2 c4 be
       -0.16898067 -0.7362874 -0.50883055 -0.38429794
0001c0 b3 98 dc be 1b a1 a0 3d b3 fc aa be b1 45 2d 3e
       -0.4308525 0.078432284 -0.3339592 0.16921116
0001d0 0f 6e 96 be c5 93 0f bf 96 3f 13 be 99 c8 1c bf
       -0.29380843 -0.56084853 -0.14379725 -0.6124359
0001e0 c3 a0 e4 be 63 f2 6d be 35 8d 3f be f5 c2 3e be
       -0.446539 -0.23236994 -0.1870621 -0.18629058
0001f0 8c 75 91 be 08 ff b4 3d 8c 78 7c be f2 0e c0 be
       -0.28409994 0.08837706 -0.2465536 -0.37511402

bn2.running_mean f4 [128]
000000 f4 27 5a be 79 26 9f 3e 86 f4 a9 be 6f fe 2b 3f
       -0.21304303 0.3108404 -0.3319437 0.6718511
000010 87 63 c7 3d 8e 4f 9a be 0c 66 f3 3e c3 9b ac be
       0.0973578 -0.3013882 0.47538793 -0.33712587
000020 c2 48 d6 3e a2 50 00 bf f6 45 4f 3f e7 12 11 bf
       0.41852385 -0.50123036 0.80966127 -0.5666947
000030 f5 75 82 3f a7 6e 08 bf a4 1b 32 bf 0a 3c 24 be
       1.0192248 -0.5329384 -0.69573426 -0.16038528
000040 fe 33 70 be 12 4e 89 3d c4 87 28 bf 1f 8f fe 3e
       -0.23457333 0.06704344 -0.6583216 0.49718568
000050 69 76 6a 3e 66 cf b4 3f 95 e7 7e 3e 46 83 da be
       0.22896732 1.4125793 0.24893029 -0.4267828
000060 05 10 bf 3e 67 41 21 3d b6 76 3c be 82 4f 74 be
       0.3731691 0.039369013 -0.1840466 -0.23858455
000070 e3 4f c7 be 59 f1 07 be 3f 7e 41 3f ac 03 81 3b
       -0.38928136 -0.1327566 0.7558326 0.0039372053
000080 86 ee de be 6e ad 81 be 40 4e 2c 3e b0 97 0a bf
       -0.43541354 -0.2532763 0.16826725 -0.54137707
000090 29 76 b0 3e f4 13 1e 3e e1 d3 09 3f 7d 22 4a 3f
       0.3446515 0.15437299 0.53838927 0.78958875
0000a0 01 f7 03 3f ac 44 e8 3d c6 0c 11 be 86 d2 14 bf
       0.51548773 0.11341223 -0.14165029 -0.58133733
0000b0 cd 21 04 be 81 a4 12 3f 9b 80 0f 3e 40 4c 18 3f
       -0.12903519 0.57282263 0.14013903 0.5949135
0000c0 73 e0 2f be c1 28 be 3d 80 dc 91 3f c1 ad 92 be
       -0.17175464 0.09285117 1.1395416 -0.2864819
0000d0 73 a9 06 bd 37 4c 5e 3e b1 39 1d 3f ed b2 b8 be
       -0.032876443 0.21708761 0.61416155 -0.3607401
0000e0 a0 66 19 bf 4f 45 c1 be 55 3e 24 be 82 81 2b 3f
       -0.5992222 -0.3774819 -0.16039403 0.6699449
0000f0 0d 09 1e 3f 4c 2c 03 bf f6 f8 8f bc c4 f1 51 3e
       0.6173256 -0.51239467 -0.017574769 0.20502383
000100 5e ba f9 bd 35 6d f7 be 18 13 fb 3e 07 1d a5 bf
       -0.1219375 -0.48325506 0.49038005 -1.2899483
000110 8b c1 40 3f 8f 79 82 be 80 d3 97 bf 17 1d 5a be
       0.75295323 -0.25483367 -1.186142 -0.2130016
000120 c6 f7 30 bf b4 da 67 bd 7b 5e 2f be 04 ff ef 3e
       -0.6912807 -0.056605056 -0.17125885 0.4687425
000130 15 32 39 bf a8 10 2a bf 30 a1 fc be 88 ca 25 bf
       -0.72342044 -0.66431665 -0.49341726 -0.64762163
000140 5c be 46 3e 30 3c 34 3f a9 93 39 3f 4d 62 34 3d
       0.19408554 0.7040434 0.72490937 0.04403906
000150 48 cb 89 be 06 83 9f 3e 46 be 1b be 1c 21 86 bd
       -0.26912904 0.3115465 -0.15209302 -0.06549284
000160 2f 35 ce 3e 7d 5b 40 3d 4c 99 83 3e 41 ef 3d 3f
       0.4027495 0.04696225 0.25702894 0.741932
000170 4b e3 54 3f 2c a9 3d be 96 8f 14 be 98 d5 ca be
       0.8315932 -0.18521565 -0.14507899 -0.39616084
000180 69 29 2c 3d 03 73 b1 3d 1b 09 b0 bf b8 59 13 3f
       0.04203168 0.08664515 -1.3752779 0.57558775
000190 e2 1b 49 3f 31 c9 bf be ae 67 62 3b b2 3c 67 be
       0.7855817 -0.37458184 0.0034546661 -0.22581747
0001a0 e4 0b 36 bd 2c 4b a3 be 3c 00 b7 3b f0 92 d4 3e
       -0.044444934 -0.3189329 0.0055847447 0.41518354
0001b0 9c 0b 0a 3f 04 7b 14 3f 30 cc a0 3f 9d 4e 6b bc
       0.53923965 0.58000207 1.2562313 -0.014362005
0001c0 b8 76 6b 3f b7 4c b7 3e 0a 78 fe bd fe 8e f1 3e
       0.91978025 0.35800716 -0.124252394 0.47179407
0001d0 df 67 32 be f5 6e 12 bf df 0d 49 3f 9e d6 78 be
       -0.17422436 -0.57200557 0.7853679 -0.2430062
0001e0 22 fa 9f 3e 59 1d cb 3e 56 9a 09 3f d0 69 68 3f
       0.31245524 0.39670828 0.5375112 0.9078646
0001f0 00 0d 1d bd 88 b6 bc be 14 ce 68 3d 9e 7f dd 3e
       -0.038342476 -0.3685801 0.056837156 0.43261427
